…
343  0.019738  1.000000  1.118804      0.712972  0.000100
344  0.019777  1.000000  1.090461      0.713891  0.000100
345  0.019569  1.000000  1.084609      0.708372  0.000100
346  0.019020  1.000000  1.061206      0.721251  0.000100
347  0.019124  1.000000  1.074297      0.722171  0.000100
348  0.021193  0.999672  0.978513      0.732291  0.000100
349  0.020427  0.999672  1.026872      0.731371  0.000100

Model: "sequential_2"
_________________________________________________________________
Layer (type)                 Output Shape              Param #   
=================================================================
batch_normalization_9 (Batch (None, 90, 77)            308       
_________________________________________________________________
conv1d_26 (Conv1D)           (None, 90, 32)            7424      
_________________________________________________________________
batch_normalization_10 (Batc (None, 90, 32)            128       
_________________________________________________________________
activation_6 (Activation)    (None, 90, 32)            0         
_________________________________________________________________
conv1d_27 (Conv1D)           (None, 90, 64)            6208      
_________________________________________________________________
batch_normalization_11 (Batc (None, 90, 64)            256       
_________________________________________________________________
activation_7 (Activation)    (None, 90, 64)            0         
_________________________________________________________________
conv1d_28 (Conv1D)           (None, 90, 32)            6176      
_________________________________________________________________
batch_normalization_12 (Batc (None, 90, 32)            128       
_________________________________________________________________
activation_8 (Activation)    (None, 90, 32)            0         
_________________________________________________________________
flatten (Flatten)            (None, 2880)              0         
_________________________________________________________________
dense_4 (Dense)              (None, 100)               288100    
_________________________________________________________________
activation_9 (Activation)    (None, 100)               0         
_________________________________________________________________
dense_5 (Dense)              (None, 17)                1717      
_________________________________________________________________
batch_normalization_13 (Batc (None, 17)                68        
_________________________________________________________________
activation_10 (Activation)   (None, 17)                0         
=================================================================
Total params: 310,513
Trainable params: 310,069
Non-trainable params: 444
_________________________________________________________________

+++Hyperparameters+++
Number of Epochs: 350
Batch Size: 64
Filters: [32, 64, 32]
Fc hidden nodes: 100
Learning rate: 0.0005
Regularization rate: 9.3e-05


Test Accuracy: 80.23549318313599
…
306  0.018193  0.998686  1.762007      0.732291  0.00032
307  0.016913  0.998686  1.698200      0.742410  0.00032
308  0.021802  0.997044  1.692034      0.724011  0.00032
309  0.022230  0.998358  1.659521      0.741490  0.00032
310  0.013931  1.000000  1.643669      0.737810  0.00032
311  0.014362  0.999672  1.670133      0.738730  0.00032
312  0.013589  1.000000  1.642437      0.742410  0.00032

Model: "sequential_3"
_________________________________________________________________
Layer (type)                 Output Shape              Param #   
=================================================================
reshape (Reshape)            (None, 3, 30, 77)         0         
_________________________________________________________________
batch_normalization_14 (Batc (None, 3, 30, 77)         308       
_________________________________________________________________
time_distributed (TimeDistri (None, 3, 30, 32)         7424      
_________________________________________________________________
time_distributed_1 (TimeDist (None, 3, 26, 64)         10304     
_________________________________________________________________
time_distributed_2 (TimeDist (None, 3, 13, 64)         0         
_________________________________________________________________
time_distributed_3 (TimeDist (None, 3, 9, 64)          20544     
_________________________________________________________________
time_distributed_4 (TimeDist (None, 3, 7, 32)          6176      
_________________________________________________________________
time_distributed_5 (TimeDist (None, 3, 3, 32)          0         
_________________________________________________________________
time_distributed_6 (TimeDist (None, 3, 96)             0         
_________________________________________________________________
lstm_3 (LSTM)                (None, 3, 512)            1247232   
_________________________________________________________________
lstm_4 (LSTM)                (None, 512)               2099200   
_________________________________________________________________
dropout_1 (Dropout)          (None, 512)               0         
_________________________________________________________________
dense_6 (Dense)              (None, 100)               51300     
_________________________________________________________________
dense_7 (Dense)              (None, 17)                1717      
=================================================================
Total params: 3,444,205
Trainable params: 3,444,051
Non-trainable params: 154
_________________________________________________________________

+++Hyperparameters+++
Number of Epochs: 350
Batch Size: 64
N hidden: 512
N steps: 3
Length: 30
N signals: 77
Learning rate: 0.0005
Cnn depth: 3
Lstm depth: 2
Regularization rate: 9.3e-05
…
317  0.011407  0.998030  2.120304      0.696412  0.000100
318  0.008929  0.999343  2.119847      0.689972  0.000100
319  0.008478  0.999015  2.228459      0.685373  0.000100
320  0.007585  0.999015  2.252236      0.677093  0.000100
321  0.008241  0.999672  2.205460      0.676173  0.000100
322  0.006622  1.000000  2.197704      0.679853  0.000100
323  0.007678  0.999672  2.211703      0.674333  0.000100

Model: "sequential_4"
_________________________________________________________________
Layer (type)                 Output Shape              Param #   
=================================================================
batch_normalization_15 (Batc (None, 90, 77)            308       
_________________________________________________________________
lstm_5 (LSTM)                (None, 128)               105472    
_________________________________________________________________
dropout_2 (Dropout)          (None, 128)               0         
_________________________________________________________________
dense_8 (Dense)              (None, 100)               12900     
_________________________________________________________________
dense_9 (Dense)              (None, 17)                1717      
=================================================================
Total params: 120,397
Trainable params: 120,243
Non-trainable params: 154
_________________________________________________________________

+++Hyperparameters+++
Number of Epochs: 350
Batch Size: 64
N hidden: 128
Learning rate: 0.0005
Regularization rate: 9.3e-05


Test Accuracy: 76.7872154712677
Test Loss: 0.7987928986549377
…
59  0.053230  0.991790  0.801773      0.823367  0.0005
60  0.044005  0.995731  0.919263      0.795768  0.0005
61  0.044782  0.994417  0.994311      0.778289  0.0005
62  0.058216  0.990476  0.932387      0.812328  0.0005
63  0.088347  0.978654  1.412100      0.748850  0.0005
64  0.098686  0.975041  0.887349      0.804968  0.0005
65  0.069794  0.985550  0.777738      0.819687  0.0005

Model: "sequential"
_________________________________________________________________
Layer (type)                 Output Shape              Param #   
=================================================================
batch_normalization (BatchNo (None, 90, 77)            308       
_________________________________________________________________
preprocess (Dense)           (None, 90, 100)           7800      
_________________________________________________________________
lstm (LSTM)                  (None, 90, 128)           117248    
_________________________________________________________________
dropout (Dropout)            (None, 90, 128)           0         
_________________________________________________________________
lstm_1 (LSTM)                (None, 128)               131584    
_________________________________________________________________
dense (Dense)                (None, 100)               12900     
_________________________________________________________________
output (Dense)               (None, 17)                1717      
=================================================================
Total params: 271,557
Trainable params: 271,403
Non-trainable params: 154
_________________________________________________________________

+++Hyperparameters+++
Number of Epochs: 350
Batch Size: 64
N hidden: 128
Learning rate: 0.0005
Regularization rate: 9.3e-05
Depth: 4


Test Accuracy: 80.82422018051147
Test Loss: 0.6404978632926941
…
348	0.144872	0.981938	0.945124	0.860810	0.000100
349	0.107137	0.989163	0.927158	0.863569	0.000100

Model: "model_1"
__________________________________________________________________________________________________
Layer (type)                    Output Shape         Param #     Connected to                     
==================================================================================================
input_2 (InputLayer)            [(None, 90, 77)]     0                                            
__________________________________________________________________________________________________
batch_normalization_16 (BatchNo (None, 90, 77)       308         input_2[0][0]                    
__________________________________________________________________________________________________
conv1d_33 (Conv1D)              (None, 90, 32)       2464        batch_normalization_16[0][0]     
__________________________________________________________________________________________________
max_pooling1d_7 (MaxPooling1D)  (None, 90, 77)       0           batch_normalization_16[0][0]     
__________________________________________________________________________________________________
conv1d_34 (Conv1D)              (None, 90, 64)       139264      conv1d_33[0][0]                  
__________________________________________________________________________________________________
conv1d_35 (Conv1D)              (None, 90, 64)       69632       conv1d_33[0][0]                  
__________________________________________________________________________________________________
conv1d_36 (Conv1D)              (None, 90, 64)       34816       conv1d_33[0][0]                  
__________________________________________________________________________________________________
conv1d_37 (Conv1D)              (None, 90, 64)       4928        max_pooling1d_7[0][0]            
__________________________________________________________________________________________________
concatenate_5 (Concatenate)     (None, 90, 256)      0           conv1d_34[0][0]                  
                                                                 conv1d_35[0][0]                  
                                                                 conv1d_36[0][0]                  
                                                                 conv1d_37[0][0]                  
__________________________________________________________________________________________________
batch_normalization_17 (BatchNo (None, 90, 256)      1024        concatenate_5[0][0]              
__________________________________________________________________________________________________
activation_11 (Activation)      (None, 90, 256)      0           batch_normalization_17[0][0]     
__________________________________________________________________________________________________
conv1d_38 (Conv1D)              (None, 90, 32)       8192        activation_11[0][0]              
__________________________________________________________________________________________________
max_pooling1d_8 (MaxPooling1D)  (None, 90, 256)      0           activation_11[0][0]              
__________________________________________________________________________________________________
conv1d_39 (Conv1D)              (None, 90, 64)       139264      conv1d_38[0][0]                  
__________________________________________________________________________________________________
conv1d_40 (Conv1D)              (None, 90, 64)       69632       conv1d_38[0][0]                  
__________________________________________________________________________________________________
conv1d_41 (Conv1D)              (None, 90, 64)       34816       conv1d_38[0][0]                  
__________________________________________________________________________________________________
conv1d_42 (Conv1D)              (None, 90, 64)       16384       max_pooling1d_8[0][0]            
__________________________________________________________________________________________________
concatenate_6 (Concatenate)     (None, 90, 256)      0           conv1d_39[0][0]                  
                                                                 conv1d_40[0][0]                  
                                                                 conv1d_41[0][0]                  
                                                                 conv1d_42[0][0]                  
__________________________________________________________________________________________________
batch_normalization_18 (BatchNo (None, 90, 256)      1024        concatenate_6[0][0]              
__________________________________________________________________________________________________
activation_12 (Activation)      (None, 90, 256)      0           batch_normalization_18[0][0]     
__________________________________________________________________________________________________
conv1d_43 (Conv1D)              (None, 90, 32)       8192        activation_12[0][0]              
__________________________________________________________________________________________________
max_pooling1d_9 (MaxPooling1D)  (None, 90, 256)      0           activation_12[0][0]              
__________________________________________________________________________________________________
conv1d_44 (Conv1D)              (None, 90, 64)       139264      conv1d_43[0][0]                  
__________________________________________________________________________________________________
conv1d_45 (Conv1D)              (None, 90, 64)       69632       conv1d_43[0][0]                  
__________________________________________________________________________________________________
conv1d_46 (Conv1D)              (None, 90, 64)       34816       conv1d_43[0][0]                  
__________________________________________________________________________________________________
conv1d_47 (Conv1D)              (None, 90, 64)       16384       max_pooling1d_9[0][0]            
__________________________________________________________________________________________________
concatenate_7 (Concatenate)     (None, 90, 256)      0           conv1d_44[0][0]                  
                                                                 conv1d_45[0][0]                  
                                                                 conv1d_46[0][0]                  
                                                                 conv1d_47[0][0]                  
__________________________________________________________________________________________________
conv1d_48 (Conv1D)              (None, 90, 256)      19712       batch_normalization_16[0][0]     
__________________________________________________________________________________________________
batch_normalization_19 (BatchNo (None, 90, 256)      1024        concatenate_7[0][0]              
__________________________________________________________________________________________________
batch_normalization_20 (BatchNo (None, 90, 256)      1024        conv1d_48[0][0]                  
__________________________________________________________________________________________________
activation_13 (Activation)      (None, 90, 256)      0           batch_normalization_19[0][0]     
__________________________________________________________________________________________________
add_1 (Add)                     (None, 90, 256)      0           batch_normalization_20[0][0]     
                                                                 activation_13[0][0]              
__________________________________________________________________________________________________
activation_14 (Activation)      (None, 90, 256)      0           add_1[0][0]                      
__________________________________________________________________________________________________
conv1d_49 (Conv1D)              (None, 90, 32)       8192        activation_14[0][0]              
__________________________________________________________________________________________________
max_pooling1d_10 (MaxPooling1D) (None, 90, 256)      0           activation_14[0][0]              
__________________________________________________________________________________________________
conv1d_50 (Conv1D)              (None, 90, 64)       139264      conv1d_49[0][0]                  
__________________________________________________________________________________________________
conv1d_51 (Conv1D)              (None, 90, 64)       69632       conv1d_49[0][0]                  
__________________________________________________________________________________________________
conv1d_52 (Conv1D)              (None, 90, 64)       34816       conv1d_49[0][0]                  
__________________________________________________________________________________________________
conv1d_53 (Conv1D)              (None, 90, 64)       16384       max_pooling1d_10[0][0]           
__________________________________________________________________________________________________
concatenate_8 (Concatenate)     (None, 90, 256)      0           conv1d_50[0][0]                  
                                                                 conv1d_51[0][0]                  
                                                                 conv1d_52[0][0]                  
                                                                 conv1d_53[0][0]                  
__________________________________________________________________________________________________
batch_normalization_21 (BatchNo (None, 90, 256)      1024        concatenate_8[0][0]              
__________________________________________________________________________________________________
activation_15 (Activation)      (None, 90, 256)      0           batch_normalization_21[0][0]     
__________________________________________________________________________________________________
conv1d_54 (Conv1D)              (None, 90, 32)       8192        activation_15[0][0]              
__________________________________________________________________________________________________
max_pooling1d_11 (MaxPooling1D) (None, 90, 256)      0           activation_15[0][0]              
__________________________________________________________________________________________________
conv1d_55 (Conv1D)              (None, 90, 64)       139264      conv1d_54[0][0]                  
__________________________________________________________________________________________________
conv1d_56 (Conv1D)              (None, 90, 64)       69632       conv1d_54[0][0]                  
__________________________________________________________________________________________________
conv1d_57 (Conv1D)              (None, 90, 64)       34816       conv1d_54[0][0]                  
__________________________________________________________________________________________________
conv1d_58 (Conv1D)              (None, 90, 64)       16384       max_pooling1d_11[0][0]           
__________________________________________________________________________________________________
concatenate_9 (Concatenate)     (None, 90, 256)      0           conv1d_55[0][0]                  
                                                                 conv1d_56[0][0]                  
                                                                 conv1d_57[0][0]                  
                                                                 conv1d_58[0][0]                  
__________________________________________________________________________________________________
batch_normalization_22 (BatchNo (None, 90, 256)      1024        concatenate_9[0][0]              
__________________________________________________________________________________________________
activation_16 (Activation)      (None, 90, 256)      0           batch_normalization_22[0][0]     
__________________________________________________________________________________________________
global_average_pooling1d_1 (Glo (None, 256)          0           activation_16[0][0]              
__________________________________________________________________________________________________
dense_10 (Dense)                (None, 17)           4369        global_average_pooling1d_1[0][0] 
==================================================================================================
Total params: 1,354,789
Trainable params: 1,351,563
Non-trainable params: 3,226
__________________________________________________________________________________________________

+++Hyperparameters+++
Number of Epochs: 350
Batch Size: 64
Learning rate: 0.0005
…
