…
343  0.011824  1.000000  0.960131      0.814090  0.000100
344  0.012648  0.999625  1.168659      0.772994  0.000100
345  0.015665  0.998592  1.299253      0.719667  0.000100
346  0.013839  0.999249  0.999869      0.779354  0.000100
347  0.013180  0.999437  0.982915      0.789139  0.000100
348  0.013083  0.999437  1.041566      0.786204  0.000100
349  0.013465  0.999343  0.976921      0.791585  0.000100

Model: "sequential"
_________________________________________________________________
Layer (type)                 Output Shape              Param #   
=================================================================
batch_normalization_7 (Batch (None, 256, 36)           144       
_________________________________________________________________
conv1d_26 (Conv1D)           (None, 256, 32)           3488      
_________________________________________________________________
batch_normalization_8 (Batch (None, 256, 32)           128       
_________________________________________________________________
activation_6 (Activation)    (None, 256, 32)           0         
_________________________________________________________________
conv1d_27 (Conv1D)           (None, 256, 64)           6208      
_________________________________________________________________
batch_normalization_9 (Batch (None, 256, 64)           256       
_________________________________________________________________
activation_7 (Activation)    (None, 256, 64)           0         
_________________________________________________________________
conv1d_28 (Conv1D)           (None, 256, 32)           6176      
_________________________________________________________________
batch_normalization_10 (Batc (None, 256, 32)           128       
_________________________________________________________________
activation_8 (Activation)    (None, 256, 32)           0         
_________________________________________________________________
flatten (Flatten)            (None, 8192)              0         
_________________________________________________________________
dense_1 (Dense)              (None, 100)               819300    
_________________________________________________________________
activation_9 (Activation)    (None, 100)               0         
_________________________________________________________________
dense_2 (Dense)              (None, 11)                1111      
_________________________________________________________________
batch_normalization_11 (Batc (None, 11)                44        
_________________________________________________________________
activation_10 (Activation)   (None, 11)                0         
=================================================================
Total params: 836,983
Trainable params: 836,633
Non-trainable params: 350
_________________________________________________________________

+++Hyperparameters+++
Number of Epochs: 350
Batch Size: 64
Filters: [32, 64, 32]
Fc hidden nodes: 100
Learning rate: 0.0005
Regularization rate: 9.3e-05


Test Accuracy: 85.78811287879944
…
343  0.005306  0.999249  1.630498      0.758806  0.000100
344  0.005004  0.999343  1.536170      0.767613  0.000100
345  0.005759  0.999249  1.573245      0.754403  0.000100
346  0.006990  0.998874  1.599329      0.756360  0.000100
347  0.005865  0.999343  1.568973      0.751957  0.000100
348  0.004988  0.999718  1.607544      0.745108  0.000100
349  0.005271  0.999437  1.581479      0.749511  0.000100

Model: "sequential_1"
_________________________________________________________________
Layer (type)                 Output Shape              Param #   
=================================================================
reshape (Reshape)            (None, 4, 64, 36)         0         
_________________________________________________________________
batch_normalization_12 (Batc (None, 4, 64, 36)         144       
_________________________________________________________________
time_distributed (TimeDistri (None, 4, 64, 32)         3488      
_________________________________________________________________
time_distributed_1 (TimeDist (None, 4, 60, 64)         10304     
_________________________________________________________________
time_distributed_2 (TimeDist (None, 4, 30, 64)         0         
_________________________________________________________________
time_distributed_3 (TimeDist (None, 4, 26, 64)         20544     
_________________________________________________________________
time_distributed_4 (TimeDist (None, 4, 24, 32)         6176      
_________________________________________________________________
time_distributed_5 (TimeDist (None, 4, 12, 32)         0         
_________________________________________________________________
time_distributed_6 (TimeDist (None, 4, 384)            0         
_________________________________________________________________
lstm (LSTM)                  (None, 4, 512)            1837056   
_________________________________________________________________
lstm_1 (LSTM)                (None, 512)               2099200   
_________________________________________________________________
dropout (Dropout)            (None, 512)               0         
_________________________________________________________________
dense_3 (Dense)              (None, 100)               51300     
_________________________________________________________________
dense_4 (Dense)              (None, 11)                1111      
=================================================================
Total params: 4,029,323
Trainable params: 4,029,251
Non-trainable params: 72
_________________________________________________________________

+++Hyperparameters+++
Number of Epochs: 350
Batch Size: 64
N hidden: 512
N steps: 4
Length: 64
N signals: 36
Learning rate: 0.0005
Cnn depth: 3
Lstm depth: 2
Regularization rate: 9.3e-05
…
343  0.017487  0.995871  1.246455      0.819961  0.000100
344  0.017003  0.995402  1.275174      0.815558  0.000100
345  0.017245  0.995214  1.161453      0.827789  0.000100
346  0.018799  0.995214  1.124337      0.831213  0.000100
347  0.017548  0.995683  1.317986      0.820450  0.000100
348  0.015960  0.995683  1.423539      0.815558  0.000100
349  0.016475  0.995683  1.453702      0.814090  0.000100

Model: "sequential_2"
_________________________________________________________________
Layer (type)                 Output Shape              Param #   
=================================================================
batch_normalization_13 (Batc (None, 256, 36)           144       
_________________________________________________________________
lstm_2 (LSTM)                (None, 128)               84480     
_________________________________________________________________
dropout_1 (Dropout)          (None, 128)               0         
_________________________________________________________________
dense_5 (Dense)              (None, 100)               12900     
_________________________________________________________________
dense_6 (Dense)              (None, 11)                1111      
=================================================================
Total params: 98,635
Trainable params: 98,563
Non-trainable params: 72
_________________________________________________________________

+++Hyperparameters+++
Number of Epochs: 350
Batch Size: 64
N hidden: 128
Learning rate: 0.0005
Regularization rate: 9.3e-05


Test Accuracy: 85.52971482276917
Test Loss: 0.6133042573928833

…
343  0.008030  0.998686  1.054848      0.801370  0.000100
344  0.008570  0.998874  1.058087      0.798434  0.000100
345  0.007666  0.998874  1.064509      0.797456  0.000100
346  0.008181  0.998686  1.063356      0.797945  0.000100
347  0.008395  0.998968  1.077701      0.792074  0.000100
348  0.008375  0.998780  1.079783      0.791096  0.000100
349  0.008474  0.998780  1.067702      0.794031  0.000100

Model: "sequential_4"
_________________________________________________________________
Layer (type)                 Output Shape              Param #   
=================================================================
batch_normalization_15 (Batc (None, 256, 36)           144       
_________________________________________________________________
preprocess (Dense)           (None, 256, 100)          3700      
_________________________________________________________________
lstm_4 (LSTM)                (None, 256, 128)          117248    
_________________________________________________________________
dropout_2 (Dropout)          (None, 256, 128)          0         
_________________________________________________________________
lstm_5 (LSTM)                (None, 128)               131584    
_________________________________________________________________
dense_9 (Dense)              (None, 100)               12900     
_________________________________________________________________
output (Dense)               (None, 11)                1111      
=================================================================
Total params: 266,687
Trainable params: 266,615
Non-trainable params: 72
_________________________________________________________________

+++Hyperparameters+++
Number of Epochs: 350
Batch Size: 64
N hidden: 128
Learning rate: 0.0005
Regularization rate: 9.3e-05
Depth: 4


Test Accuracy: 86.9767427444458
Test Loss: 	0.7764365673065
…
349  0.028591  0.997935  0.385656      0.886008  0.000100

Model: "model"
__________________________________________________________________________________________________
Layer (type)                    Output Shape         Param #     Connected to                     
==================================================================================================
input_1 (InputLayer)            [(None, 256, 36)]    0                                            
__________________________________________________________________________________________________
batch_normalization (BatchNorma (None, 256, 36)      144         input_1[0][0]                    
__________________________________________________________________________________________________
conv1d (Conv1D)                 (None, 256, 32)      1152        batch_normalization[0][0]        
__________________________________________________________________________________________________
max_pooling1d (MaxPooling1D)    (None, 256, 36)      0           batch_normalization[0][0]        
__________________________________________________________________________________________________
conv1d_1 (Conv1D)               (None, 256, 64)      139264      conv1d[0][0]                     
__________________________________________________________________________________________________
conv1d_2 (Conv1D)               (None, 256, 64)      69632       conv1d[0][0]                     
__________________________________________________________________________________________________
conv1d_3 (Conv1D)               (None, 256, 64)      34816       conv1d[0][0]                     
__________________________________________________________________________________________________
conv1d_4 (Conv1D)               (None, 256, 64)      2304        max_pooling1d[0][0]              
__________________________________________________________________________________________________
concatenate (Concatenate)       (None, 256, 256)     0           conv1d_1[0][0]                   
                                                                 conv1d_2[0][0]                   
                                                                 conv1d_3[0][0]                   
                                                                 conv1d_4[0][0]                   
__________________________________________________________________________________________________
batch_normalization_1 (BatchNor (None, 256, 256)     1024        concatenate[0][0]                
__________________________________________________________________________________________________
activation (Activation)         (None, 256, 256)     0           batch_normalization_1[0][0]      
__________________________________________________________________________________________________
conv1d_5 (Conv1D)               (None, 256, 32)      8192        activation[0][0]                 
__________________________________________________________________________________________________
max_pooling1d_1 (MaxPooling1D)  (None, 256, 256)     0           activation[0][0]                 
__________________________________________________________________________________________________
conv1d_6 (Conv1D)               (None, 256, 64)      139264      conv1d_5[0][0]                   
__________________________________________________________________________________________________
conv1d_7 (Conv1D)               (None, 256, 64)      69632       conv1d_5[0][0]                   
__________________________________________________________________________________________________
conv1d_8 (Conv1D)               (None, 256, 64)      34816       conv1d_5[0][0]                   
__________________________________________________________________________________________________
conv1d_9 (Conv1D)               (None, 256, 64)      16384       max_pooling1d_1[0][0]            
__________________________________________________________________________________________________
concatenate_1 (Concatenate)     (None, 256, 256)     0           conv1d_6[0][0]                   
                                                                 conv1d_7[0][0]                   
                                                                 conv1d_8[0][0]                   
                                                                 conv1d_9[0][0]                   
__________________________________________________________________________________________________
batch_normalization_2 (BatchNor (None, 256, 256)     1024        concatenate_1[0][0]              
__________________________________________________________________________________________________
activation_1 (Activation)       (None, 256, 256)     0           batch_normalization_2[0][0]      
__________________________________________________________________________________________________
conv1d_10 (Conv1D)              (None, 256, 32)      8192        activation_1[0][0]               
__________________________________________________________________________________________________
max_pooling1d_2 (MaxPooling1D)  (None, 256, 256)     0           activation_1[0][0]               
__________________________________________________________________________________________________
conv1d_11 (Conv1D)              (None, 256, 64)      139264      conv1d_10[0][0]                  
__________________________________________________________________________________________________
conv1d_12 (Conv1D)              (None, 256, 64)      69632       conv1d_10[0][0]                  
__________________________________________________________________________________________________
conv1d_13 (Conv1D)              (None, 256, 64)      34816       conv1d_10[0][0]                  
__________________________________________________________________________________________________
conv1d_14 (Conv1D)              (None, 256, 64)      16384       max_pooling1d_2[0][0]            
__________________________________________________________________________________________________
concatenate_2 (Concatenate)     (None, 256, 256)     0           conv1d_11[0][0]                  
                                                                 conv1d_12[0][0]                  
                                                                 conv1d_13[0][0]                  
                                                                 conv1d_14[0][0]                  
__________________________________________________________________________________________________
conv1d_15 (Conv1D)              (None, 256, 256)     9216        batch_normalization[0][0]        
__________________________________________________________________________________________________
batch_normalization_3 (BatchNor (None, 256, 256)     1024        concatenate_2[0][0]              
__________________________________________________________________________________________________
batch_normalization_4 (BatchNor (None, 256, 256)     1024        conv1d_15[0][0]                  
__________________________________________________________________________________________________
activation_2 (Activation)       (None, 256, 256)     0           batch_normalization_3[0][0]      
__________________________________________________________________________________________________
add (Add)                       (None, 256, 256)     0           batch_normalization_4[0][0]      
                                                                 activation_2[0][0]               
__________________________________________________________________________________________________
activation_3 (Activation)       (None, 256, 256)     0           add[0][0]                        
__________________________________________________________________________________________________
conv1d_16 (Conv1D)              (None, 256, 32)      8192        activation_3[0][0]               
__________________________________________________________________________________________________
max_pooling1d_3 (MaxPooling1D)  (None, 256, 256)     0           activation_3[0][0]               
__________________________________________________________________________________________________
conv1d_17 (Conv1D)              (None, 256, 64)      139264      conv1d_16[0][0]                  
__________________________________________________________________________________________________
conv1d_18 (Conv1D)              (None, 256, 64)      69632       conv1d_16[0][0]                  
__________________________________________________________________________________________________
conv1d_19 (Conv1D)              (None, 256, 64)      34816       conv1d_16[0][0]                  
__________________________________________________________________________________________________
conv1d_20 (Conv1D)              (None, 256, 64)      16384       max_pooling1d_3[0][0]            
__________________________________________________________________________________________________
concatenate_3 (Concatenate)     (None, 256, 256)     0           conv1d_17[0][0]                  
                                                                 conv1d_18[0][0]                  
                                                                 conv1d_19[0][0]                  
                                                                 conv1d_20[0][0]                  
__________________________________________________________________________________________________
batch_normalization_5 (BatchNor (None, 256, 256)     1024        concatenate_3[0][0]              
__________________________________________________________________________________________________
activation_4 (Activation)       (None, 256, 256)     0           batch_normalization_5[0][0]      
__________________________________________________________________________________________________
conv1d_21 (Conv1D)              (None, 256, 32)      8192        activation_4[0][0]               
__________________________________________________________________________________________________
max_pooling1d_4 (MaxPooling1D)  (None, 256, 256)     0           activation_4[0][0]               
__________________________________________________________________________________________________
conv1d_22 (Conv1D)              (None, 256, 64)      139264      conv1d_21[0][0]                  
__________________________________________________________________________________________________
conv1d_23 (Conv1D)              (None, 256, 64)      69632       conv1d_21[0][0]                  
__________________________________________________________________________________________________
conv1d_24 (Conv1D)              (None, 256, 64)      34816       conv1d_21[0][0]                  
__________________________________________________________________________________________________
conv1d_25 (Conv1D)              (None, 256, 64)      16384       max_pooling1d_4[0][0]            
__________________________________________________________________________________________________
concatenate_4 (Concatenate)     (None, 256, 256)     0           conv1d_22[0][0]                  
                                                                 conv1d_23[0][0]                  
                                                                 conv1d_24[0][0]                  
                                                                 conv1d_25[0][0]                  
__________________________________________________________________________________________________
batch_normalization_6 (BatchNor (None, 256, 256)     1024        concatenate_4[0][0]              
__________________________________________________________________________________________________
activation_5 (Activation)       (None, 256, 256)     0           batch_normalization_6[0][0]      
__________________________________________________________________________________________________
global_average_pooling1d (Globa (None, 256)          0           activation_5[0][0]               
__________________________________________________________________________________________________
dense (Dense)                   (None, 11)           2827        global_average_pooling1d[0][0]   
==================================================================================================
Total params: 1,338,651
Trainable params: 1,335,507
Non-trainable params: 3,144
__________________________________________________________________________________________________

+++Hyperparameters+++
Number of Epochs: 350
Batch Size: 64
Learning rate: 0.0005
…
