…
343  0.028409  0.994462  1.134756      0.845818  0.000100
344  0.028471  0.993833  1.239744      0.843321  0.000100
345  0.030969  0.992700  1.213575      0.845194  0.000100
346  0.031563  0.992826  1.166316      0.843945  0.000100
347  0.029134  0.993455  1.072035      0.842697  0.000100
348  0.030123  0.992574  1.055938      0.841448  0.000100
349  0.026618  0.994210  1.145717      0.843945  0.000100

Model: "sequential"
_________________________________________________________________
Layer (type)                 Output Shape              Param #   
=================================================================
batch_normalization (BatchNo (None, 192, 9)            36        
_________________________________________________________________
preprocess (Dense)           (None, 192, 100)          1000      
_________________________________________________________________
lstm (LSTM)                  (None, 192, 128)          117248    
_________________________________________________________________
dropout (Dropout)            (None, 192, 128)          0         
_________________________________________________________________
lstm_1 (LSTM)                (None, 128)               131584    
_________________________________________________________________
dense (Dense)                (None, 100)               12900     
_________________________________________________________________
output (Dense)               (None, 2)                 202       
=================================================================
Total params: 262,970
Trainable params: 262,952
Non-trainable params: 18
_________________________________________________________________

+++Hyperparameters+++
Number of Epochs: 350
Batch Size: 64
N hidden: 128
Learning rate: 0.0005
Regularization rate: 9.3e-05
Depth: 4


Test Accuracy: 87.69297003746033
Test Loss: 0.27604588866233826
…
