…
322  0.010530  0.999874  0.976331      0.843321  0.000105
323  0.009933  1.000000  0.911632      0.847066  0.000105
324  0.009924  1.000000  0.936002      0.847066  0.000105
325  0.009992  1.000000  0.953185      0.844569  0.000105
326  0.009779  1.000000  0.954502      0.843321  0.000105
327  0.009678  1.000000  0.958236      0.843945  0.000105
328  0.009759  1.000000  0.928235      0.845818  0.000105

Model: "sequential_2"
_________________________________________________________________
Layer (type)                 Output Shape              Param #   
=================================================================
batch_normalization_9 (Batch (None, 192, 9)            36        
_________________________________________________________________
conv1d_26 (Conv1D)           (None, 192, 32)           896       
_________________________________________________________________
batch_normalization_10 (Batc (None, 192, 32)           128       
_________________________________________________________________
activation_6 (Activation)    (None, 192, 32)           0         
_________________________________________________________________
conv1d_27 (Conv1D)           (None, 192, 64)           6208      
_________________________________________________________________
batch_normalization_11 (Batc (None, 192, 64)           256       
_________________________________________________________________
activation_7 (Activation)    (None, 192, 64)           0         
_________________________________________________________________
conv1d_28 (Conv1D)           (None, 192, 32)           6176      
_________________________________________________________________
batch_normalization_12 (Batc (None, 192, 32)           128       
_________________________________________________________________
activation_8 (Activation)    (None, 192, 32)           0         
_________________________________________________________________
flatten (Flatten)            (None, 6144)              0         
_________________________________________________________________
dense_4 (Dense)              (None, 100)               614500    
_________________________________________________________________
activation_9 (Activation)    (None, 100)               0         
_________________________________________________________________
dense_5 (Dense)              (None, 2)                 202       
_________________________________________________________________
batch_normalization_13 (Batc (None, 2)                 8         
_________________________________________________________________
activation_10 (Activation)   (None, 2)                 0         
=================================================================
Total params: 628,538
Trainable params: 628,260
Non-trainable params: 278
_________________________________________________________________

+++Hyperparameters+++
Number of Epochs: 350
Batch Size: 64
Filters: [32, 64, 32]
Fc hidden nodes: 100
Learning rate: 0.0005
Regularization rate: 9.3e-05


Test Accuracy: 92.96740889549255
…
300  0.003144  0.999874  1.705559      0.843945  0.000100
301  0.002885  0.999874  1.782993      0.843321  0.000100
302  0.003057  0.999748  1.787000      0.843945  0.000100
303  0.003463  0.999622  1.810055      0.845194  0.000100
304  0.003712  0.999748  1.812427      0.843321  0.000100
305  0.003181  0.999748  1.814218      0.843945  0.000100
306  0.002409  1.000000  1.827611      0.843945  0.000100

Model: "sequential_3"
_________________________________________________________________
Layer (type)                 Output Shape              Param #   
=================================================================
reshape (Reshape)            (None, 3, 64, 9)          0         
_________________________________________________________________
batch_normalization_14 (Batc (None, 3, 64, 9)          36        
_________________________________________________________________
time_distributed (TimeDistri (None, 3, 64, 32)         896       
_________________________________________________________________
time_distributed_1 (TimeDist (None, 3, 60, 64)         10304     
_________________________________________________________________
time_distributed_2 (TimeDist (None, 3, 30, 64)         0         
_________________________________________________________________
time_distributed_3 (TimeDist (None, 3, 26, 64)         20544     
_________________________________________________________________
time_distributed_4 (TimeDist (None, 3, 24, 32)         6176      
_________________________________________________________________
time_distributed_5 (TimeDist (None, 3, 12, 32)         0         
_________________________________________________________________
time_distributed_6 (TimeDist (None, 3, 384)            0         
_________________________________________________________________
lstm_3 (LSTM)                (None, 3, 512)            1837056   
_________________________________________________________________
lstm_4 (LSTM)                (None, 512)               2099200   
_________________________________________________________________
dropout_1 (Dropout)          (None, 512)               0         
_________________________________________________________________
dense_6 (Dense)              (None, 100)               51300     
_________________________________________________________________
dense_7 (Dense)              (None, 2)                 202       
=================================================================
Total params: 4,025,714
Trainable params: 4,025,696
Non-trainable params: 18
_________________________________________________________________

+++Hyperparameters+++
Number of Epochs: 350
Batch Size: 64
N hidden: 512
N steps: 3
Length: 64
N signals: 9
Learning rate: 0.0005
Cnn depth: 3
Lstm depth: 2
Regularization rate: 9.3e-05
…
343  0.123995  0.949528  0.452920      0.843321  0.000100
344  0.125716  0.947011  0.417512      0.844569  0.000100
345  0.128077  0.946885  0.447636      0.843945  0.000100
346  0.120667  0.950283  0.450757      0.844569  0.000100
347  0.123951  0.949780  0.440416      0.843945  0.000100
348  0.123803  0.948773  0.390420      0.843945  0.000100
349  0.116518  0.950913  0.438475      0.843945  0.000100

Model: "sequential_4"
_________________________________________________________________
Layer (type)                 Output Shape              Param #   
=================================================================
batch_normalization_15 (Batc (None, 192, 9)            36        
_________________________________________________________________
lstm_5 (LSTM)                (None, 128)               70656     
_________________________________________________________________
dropout_2 (Dropout)          (None, 128)               0         
_________________________________________________________________
dense_8 (Dense)              (None, 100)               12900     
_________________________________________________________________
dense_9 (Dense)              (None, 2)                 202       
=================================================================
Total params: 83,794
Trainable params: 83,776
Non-trainable params: 18
_________________________________________________________________

+++Hyperparameters+++
Number of Epochs: 350
Batch Size: 64
N hidden: 128
Learning rate: 0.0005
Regularization rate: 9.3e-05


Test Accuracy: 93.22469830513
Test Loss: 0.2391945719718933



…
315  0.025643  0.997609  0.974726      0.848939  0.000100

Model: "model_1"
__________________________________________________________________________________________________
Layer (type)                    Output Shape         Param #     Connected to                     
==================================================================================================
input_2 (InputLayer)            [(None, 192, 9)]     0                                            
__________________________________________________________________________________________________
batch_normalization_16 (BatchNo (None, 192, 9)       36          input_2[0][0]                    
__________________________________________________________________________________________________
conv1d_33 (Conv1D)              (None, 192, 32)      288         batch_normalization_16[0][0]     
__________________________________________________________________________________________________
max_pooling1d_7 (MaxPooling1D)  (None, 192, 9)       0           batch_normalization_16[0][0]     
__________________________________________________________________________________________________
conv1d_34 (Conv1D)              (None, 192, 64)      139264      conv1d_33[0][0]                  
__________________________________________________________________________________________________
conv1d_35 (Conv1D)              (None, 192, 64)      69632       conv1d_33[0][0]                  
__________________________________________________________________________________________________
conv1d_36 (Conv1D)              (None, 192, 64)      34816       conv1d_33[0][0]                  
__________________________________________________________________________________________________
conv1d_37 (Conv1D)              (None, 192, 64)      576         max_pooling1d_7[0][0]            
__________________________________________________________________________________________________
concatenate_5 (Concatenate)     (None, 192, 256)     0           conv1d_34[0][0]                  
                                                                 conv1d_35[0][0]                  
                                                                 conv1d_36[0][0]                  
                                                                 conv1d_37[0][0]                  
__________________________________________________________________________________________________
batch_normalization_17 (BatchNo (None, 192, 256)     1024        concatenate_5[0][0]              
__________________________________________________________________________________________________
activation_11 (Activation)      (None, 192, 256)     0           batch_normalization_17[0][0]     
__________________________________________________________________________________________________
conv1d_38 (Conv1D)              (None, 192, 32)      8192        activation_11[0][0]              
__________________________________________________________________________________________________
max_pooling1d_8 (MaxPooling1D)  (None, 192, 256)     0           activation_11[0][0]              
__________________________________________________________________________________________________
conv1d_39 (Conv1D)              (None, 192, 64)      139264      conv1d_38[0][0]                  
__________________________________________________________________________________________________
conv1d_40 (Conv1D)              (None, 192, 64)      69632       conv1d_38[0][0]                  
__________________________________________________________________________________________________
conv1d_41 (Conv1D)              (None, 192, 64)      34816       conv1d_38[0][0]                  
__________________________________________________________________________________________________
conv1d_42 (Conv1D)              (None, 192, 64)      16384       max_pooling1d_8[0][0]            
__________________________________________________________________________________________________
concatenate_6 (Concatenate)     (None, 192, 256)     0           conv1d_39[0][0]                  
                                                                 conv1d_40[0][0]                  
                                                                 conv1d_41[0][0]                  
                                                                 conv1d_42[0][0]                  
__________________________________________________________________________________________________
batch_normalization_18 (BatchNo (None, 192, 256)     1024        concatenate_6[0][0]              
__________________________________________________________________________________________________
activation_12 (Activation)      (None, 192, 256)     0           batch_normalization_18[0][0]     
__________________________________________________________________________________________________
conv1d_43 (Conv1D)              (None, 192, 32)      8192        activation_12[0][0]              
__________________________________________________________________________________________________
max_pooling1d_9 (MaxPooling1D)  (None, 192, 256)     0           activation_12[0][0]              
__________________________________________________________________________________________________
conv1d_44 (Conv1D)              (None, 192, 64)      139264      conv1d_43[0][0]                  
__________________________________________________________________________________________________
conv1d_45 (Conv1D)              (None, 192, 64)      69632       conv1d_43[0][0]                  
__________________________________________________________________________________________________
conv1d_46 (Conv1D)              (None, 192, 64)      34816       conv1d_43[0][0]                  
__________________________________________________________________________________________________
conv1d_47 (Conv1D)              (None, 192, 64)      16384       max_pooling1d_9[0][0]            
__________________________________________________________________________________________________
concatenate_7 (Concatenate)     (None, 192, 256)     0           conv1d_44[0][0]                  
                                                                 conv1d_45[0][0]                  
                                                                 conv1d_46[0][0]                  
                                                                 conv1d_47[0][0]                  
__________________________________________________________________________________________________
conv1d_48 (Conv1D)              (None, 192, 256)     2304        batch_normalization_16[0][0]     
__________________________________________________________________________________________________
batch_normalization_19 (BatchNo (None, 192, 256)     1024        concatenate_7[0][0]              
__________________________________________________________________________________________________
batch_normalization_20 (BatchNo (None, 192, 256)     1024        conv1d_48[0][0]                  
__________________________________________________________________________________________________
activation_13 (Activation)      (None, 192, 256)     0           batch_normalization_19[0][0]     
__________________________________________________________________________________________________
add_1 (Add)                     (None, 192, 256)     0           batch_normalization_20[0][0]     
                                                                 activation_13[0][0]              
__________________________________________________________________________________________________
activation_14 (Activation)      (None, 192, 256)     0           add_1[0][0]                      
__________________________________________________________________________________________________
conv1d_49 (Conv1D)              (None, 192, 32)      8192        activation_14[0][0]              
__________________________________________________________________________________________________
max_pooling1d_10 (MaxPooling1D) (None, 192, 256)     0           activation_14[0][0]              
__________________________________________________________________________________________________
conv1d_50 (Conv1D)              (None, 192, 64)      139264      conv1d_49[0][0]                  
__________________________________________________________________________________________________
conv1d_51 (Conv1D)              (None, 192, 64)      69632       conv1d_49[0][0]                  
__________________________________________________________________________________________________
conv1d_52 (Conv1D)              (None, 192, 64)      34816       conv1d_49[0][0]                  
__________________________________________________________________________________________________
conv1d_53 (Conv1D)              (None, 192, 64)      16384       max_pooling1d_10[0][0]           
__________________________________________________________________________________________________
concatenate_8 (Concatenate)     (None, 192, 256)     0           conv1d_50[0][0]                  
                                                                 conv1d_51[0][0]                  
                                                                 conv1d_52[0][0]                  
                                                                 conv1d_53[0][0]                  
__________________________________________________________________________________________________
batch_normalization_21 (BatchNo (None, 192, 256)     1024        concatenate_8[0][0]              
__________________________________________________________________________________________________
activation_15 (Activation)      (None, 192, 256)     0           batch_normalization_21[0][0]     
__________________________________________________________________________________________________
conv1d_54 (Conv1D)              (None, 192, 32)      8192        activation_15[0][0]              
__________________________________________________________________________________________________
max_pooling1d_11 (MaxPooling1D) (None, 192, 256)     0           activation_15[0][0]              
__________________________________________________________________________________________________
conv1d_55 (Conv1D)              (None, 192, 64)      139264      conv1d_54[0][0]                  
__________________________________________________________________________________________________
conv1d_56 (Conv1D)              (None, 192, 64)      69632       conv1d_54[0][0]                  
__________________________________________________________________________________________________
conv1d_57 (Conv1D)              (None, 192, 64)      34816       conv1d_54[0][0]                  
__________________________________________________________________________________________________
conv1d_58 (Conv1D)              (None, 192, 64)      16384       max_pooling1d_11[0][0]           
__________________________________________________________________________________________________
concatenate_9 (Concatenate)     (None, 192, 256)     0           conv1d_55[0][0]                  
                                                                 conv1d_56[0][0]                  
                                                                 conv1d_57[0][0]                  
                                                                 conv1d_58[0][0]                  
__________________________________________________________________________________________________
batch_normalization_22 (BatchNo (None, 192, 256)     1024        concatenate_9[0][0]              
__________________________________________________________________________________________________
activation_16 (Activation)      (None, 192, 256)     0           batch_normalization_22[0][0]     
__________________________________________________________________________________________________
global_average_pooling1d_1 (Glo (None, 256)          0           activation_16[0][0]              
__________________________________________________________________________________________________
dense_10 (Dense)                (None, 2)            514         global_average_pooling1d_1[0][0] 
==================================================================================================
Total params: 1,326,726
Trainable params: 1,323,636
Non-trainable params: 3,090
__________________________________________________________________________________________________

+++Hyperparameters+++
Number of Epochs: 350
Batch Size: 64
Learning rate: 0.0005
…
