…
322  0.010530  0.999874  0.976331      0.843321  0.000105
323  0.009933  1.000000  0.911632      0.847066  0.000105
324  0.009924  1.000000  0.936002      0.847066  0.000105
325  0.009992  1.000000  0.953185      0.844569  0.000105
326  0.009779  1.000000  0.954502      0.843321  0.000105
327  0.009678  1.000000  0.958236      0.843945  0.000105
328  0.009759  1.000000  0.928235      0.845818  0.000105

Model: "sequential_2"
_________________________________________________________________
Layer (type)                 Output Shape              Param #   
=================================================================
batch_normalization_9 (Batch (None, 192, 9)            36        
_________________________________________________________________
conv1d_26 (Conv1D)           (None, 192, 32)           896       
_________________________________________________________________
batch_normalization_10 (Batc (None, 192, 32)           128       
_________________________________________________________________
activation_6 (Activation)    (None, 192, 32)           0         
_________________________________________________________________
conv1d_27 (Conv1D)           (None, 192, 64)           6208      
_________________________________________________________________
batch_normalization_11 (Batc (None, 192, 64)           256       
_________________________________________________________________
activation_7 (Activation)    (None, 192, 64)           0         
_________________________________________________________________
conv1d_28 (Conv1D)           (None, 192, 32)           6176      
_________________________________________________________________
batch_normalization_12 (Batc (None, 192, 32)           128       
_________________________________________________________________
activation_8 (Activation)    (None, 192, 32)           0         
_________________________________________________________________
flatten (Flatten)            (None, 6144)              0         
_________________________________________________________________
dense_4 (Dense)              (None, 100)               614500    
_________________________________________________________________
activation_9 (Activation)    (None, 100)               0         
_________________________________________________________________
dense_5 (Dense)              (None, 2)                 202       
_________________________________________________________________
batch_normalization_13 (Batc (None, 2)                 8         
_________________________________________________________________
activation_10 (Activation)   (None, 2)                 0         
=================================================================
Total params: 628,538
Trainable params: 628,260
Non-trainable params: 278
_________________________________________________________________

+++Hyperparameters+++
Number of Epochs: 350
Batch Size: 64
Filters: [32, 64, 32]
Fc hidden nodes: 100
Learning rate: 0.0005
Regularization rate: 9.3e-05


Test Accuracy: 92.96740889549255
…
300  0.003144  0.999874  1.705559      0.843945  0.000100
301  0.002885  0.999874  1.782993      0.843321  0.000100
302  0.003057  0.999748  1.787000      0.843945  0.000100
303  0.003463  0.999622  1.810055      0.845194  0.000100
304  0.003712  0.999748  1.812427      0.843321  0.000100
305  0.003181  0.999748  1.814218      0.843945  0.000100
306  0.002409  1.000000  1.827611      0.843945  0.000100

Model: "sequential_3"
_________________________________________________________________
Layer (type)                 Output Shape              Param #   
=================================================================
reshape (Reshape)            (None, 3, 64, 9)          0         
_________________________________________________________________
batch_normalization_14 (Batc (None, 3, 64, 9)          36        
_________________________________________________________________
time_distributed (TimeDistri (None, 3, 64, 32)         896       
_________________________________________________________________
time_distributed_1 (TimeDist (None, 3, 60, 64)         10304     
_________________________________________________________________
time_distributed_2 (TimeDist (None, 3, 30, 64)         0         
_________________________________________________________________
time_distributed_3 (TimeDist (None, 3, 26, 64)         20544     
_________________________________________________________________
time_distributed_4 (TimeDist (None, 3, 24, 32)         6176      
_________________________________________________________________
time_distributed_5 (TimeDist (None, 3, 12, 32)         0         
_________________________________________________________________
time_distributed_6 (TimeDist (None, 3, 384)            0         
_________________________________________________________________
lstm_3 (LSTM)                (None, 3, 512)            1837056   
_________________________________________________________________
lstm_4 (LSTM)                (None, 512)               2099200   
_________________________________________________________________
dropout_1 (Dropout)          (None, 512)               0         
_________________________________________________________________
dense_6 (Dense)              (None, 100)               51300     
_________________________________________________________________
dense_7 (Dense)              (None, 2)                 202       
=================================================================
Total params: 4,025,714
Trainable params: 4,025,696
Non-trainable params: 18
_________________________________________________________________

+++Hyperparameters+++
Number of Epochs: 350
Batch Size: 64
N hidden: 512
N steps: 3
Length: 64
N signals: 9
Learning rate: 0.0005
Cnn depth: 3
Lstm depth: 2
Regularization rate: 9.3e-05
…
343  0.123995  0.949528  0.452920      0.843321  0.000100
344  0.125716  0.947011  0.417512      0.844569  0.000100
345  0.128077  0.946885  0.447636      0.843945  0.000100
346  0.120667  0.950283  0.450757      0.844569  0.000100
347  0.123951  0.949780  0.440416      0.843945  0.000100
348  0.123803  0.948773  0.390420      0.843945  0.000100
349  0.116518  0.950913  0.438475      0.843945  0.000100

Model: "sequential_4"
_________________________________________________________________
Layer (type)                 Output Shape              Param #   
=================================================================
batch_normalization_15 (Batc (None, 192, 9)            36        
_________________________________________________________________
lstm_5 (LSTM)                (None, 128)               70656     
_________________________________________________________________
dropout_2 (Dropout)          (None, 128)               0         
_________________________________________________________________
dense_8 (Dense)              (None, 100)               12900     
_________________________________________________________________
dense_9 (Dense)              (None, 2)                 202       
=================================================================
Total params: 83,794
Trainable params: 83,776
Non-trainable params: 18
_________________________________________________________________

+++Hyperparameters+++
Number of Epochs: 350
Batch Size: 64
N hidden: 128
Learning rate: 0.0005
Regularization rate: 9.3e-05


Test Accuracy: 93.22469830513
Test Loss: 0.2391945719718933



…
142  0.106767  0.960982  0.393782      0.847690  0.000256
143  0.109931  0.958842  0.344778      0.842697  0.000256
144  0.108289  0.958716  0.422416      0.847690  0.000256
145  0.105916  0.960101  0.455777      0.846442  0.000256
146  0.106817  0.959849  0.446842      0.841448  0.000256
147  0.104285  0.959597  0.406393      0.843321  0.000256
148  0.106670  0.959723  0.472856      0.848315  0.000256

Model: "sequential"
_________________________________________________________________
Layer (type)                 Output Shape              Param #   
=================================================================
batch_normalization (BatchNo (None, 192, 9)            36        
_________________________________________________________________
preprocess (Dense)           (None, 192, 100)          1000      
_________________________________________________________________
lstm (LSTM)                  (None, 192, 128)          117248    
_________________________________________________________________
dropout (Dropout)            (None, 192, 128)          0         
_________________________________________________________________
lstm_1 (LSTM)                (None, 128)               131584    
_________________________________________________________________
dense (Dense)                (None, 100)               12900     
_________________________________________________________________
output (Dense)               (None, 2)                 202       
=================================================================
Total params: 262,970
Trainable params: 262,952
Non-trainable params: 18
_________________________________________________________________

+++Hyperparameters+++
Number of Epochs: 350
Batch Size: 64
N hidden: 128
Learning rate: 0.0005
Regularization rate: 9.3e-05
Depth: 4


Test Accuracy: 87.65008449554443
Test Loss: 0.29688966274261475
…
349 0.023525  0.998616  0.722128  0.863920  0.000100

[350 rows x 5 columns]

Model: "model"
__________________________________________________________________________________________________
Layer (type)                    Output Shape         Param #     Connected to                     
==================================================================================================
input_1 (InputLayer)            [(None, 192, 9)]     0                                            
__________________________________________________________________________________________________
batch_normalization (BatchNorma (None, 192, 9)       36          input_1[0][0]                    
__________________________________________________________________________________________________
conv1d (Conv1D)                 (None, 192, 32)      288         batch_normalization[0][0]        
__________________________________________________________________________________________________
max_pooling1d (MaxPooling1D)    (None, 192, 9)       0           batch_normalization[0][0]        
__________________________________________________________________________________________________
conv1d_1 (Conv1D)               (None, 192, 64)      139264      conv1d[0][0]                     
__________________________________________________________________________________________________
conv1d_2 (Conv1D)               (None, 192, 64)      69632       conv1d[0][0]                     
__________________________________________________________________________________________________
conv1d_3 (Conv1D)               (None, 192, 64)      34816       conv1d[0][0]                     
__________________________________________________________________________________________________
conv1d_4 (Conv1D)               (None, 192, 64)      576         max_pooling1d[0][0]              
__________________________________________________________________________________________________
concatenate (Concatenate)       (None, 192, 256)     0           conv1d_1[0][0]                   
                                                                 conv1d_2[0][0]                   
                                                                 conv1d_3[0][0]                   
                                                                 conv1d_4[0][0]                   
__________________________________________________________________________________________________
batch_normalization_1 (BatchNor (None, 192, 256)     1024        concatenate[0][0]                
__________________________________________________________________________________________________
activation (Activation)         (None, 192, 256)     0           batch_normalization_1[0][0]      
__________________________________________________________________________________________________
conv1d_5 (Conv1D)               (None, 192, 32)      8192        activation[0][0]                 
__________________________________________________________________________________________________
max_pooling1d_1 (MaxPooling1D)  (None, 192, 256)     0           activation[0][0]                 
__________________________________________________________________________________________________
conv1d_6 (Conv1D)               (None, 192, 64)      139264      conv1d_5[0][0]                   
__________________________________________________________________________________________________
conv1d_7 (Conv1D)               (None, 192, 64)      69632       conv1d_5[0][0]                   
__________________________________________________________________________________________________
conv1d_8 (Conv1D)               (None, 192, 64)      34816       conv1d_5[0][0]                   
__________________________________________________________________________________________________
conv1d_9 (Conv1D)               (None, 192, 64)      16384       max_pooling1d_1[0][0]            
__________________________________________________________________________________________________
concatenate_1 (Concatenate)     (None, 192, 256)     0           conv1d_6[0][0]                   
                                                                 conv1d_7[0][0]                   
                                                                 conv1d_8[0][0]                   
                                                                 conv1d_9[0][0]                   
__________________________________________________________________________________________________
batch_normalization_2 (BatchNor (None, 192, 256)     1024        concatenate_1[0][0]              
__________________________________________________________________________________________________
activation_1 (Activation)       (None, 192, 256)     0           batch_normalization_2[0][0]      
__________________________________________________________________________________________________
conv1d_10 (Conv1D)              (None, 192, 32)      8192        activation_1[0][0]               
__________________________________________________________________________________________________
max_pooling1d_2 (MaxPooling1D)  (None, 192, 256)     0           activation_1[0][0]               
__________________________________________________________________________________________________
conv1d_11 (Conv1D)              (None, 192, 64)      139264      conv1d_10[0][0]                  
__________________________________________________________________________________________________
conv1d_12 (Conv1D)              (None, 192, 64)      69632       conv1d_10[0][0]                  
__________________________________________________________________________________________________
conv1d_13 (Conv1D)              (None, 192, 64)      34816       conv1d_10[0][0]                  
__________________________________________________________________________________________________
conv1d_14 (Conv1D)              (None, 192, 64)      16384       max_pooling1d_2[0][0]            
__________________________________________________________________________________________________
concatenate_2 (Concatenate)     (None, 192, 256)     0           conv1d_11[0][0]                  
                                                                 conv1d_12[0][0]                  
                                                                 conv1d_13[0][0]                  
                                                                 conv1d_14[0][0]                  
__________________________________________________________________________________________________
conv1d_15 (Conv1D)              (None, 192, 256)     2304        batch_normalization[0][0]        
__________________________________________________________________________________________________
batch_normalization_3 (BatchNor (None, 192, 256)     1024        concatenate_2[0][0]              
__________________________________________________________________________________________________
batch_normalization_4 (BatchNor (None, 192, 256)     1024        conv1d_15[0][0]                  
__________________________________________________________________________________________________
activation_2 (Activation)       (None, 192, 256)     0           batch_normalization_3[0][0]      
__________________________________________________________________________________________________
add (Add)                       (None, 192, 256)     0           batch_normalization_4[0][0]      
                                                                 activation_2[0][0]               
__________________________________________________________________________________________________
activation_3 (Activation)       (None, 192, 256)     0           add[0][0]                        
__________________________________________________________________________________________________
conv1d_16 (Conv1D)              (None, 192, 32)      8192        activation_3[0][0]               
__________________________________________________________________________________________________
max_pooling1d_3 (MaxPooling1D)  (None, 192, 256)     0           activation_3[0][0]               
__________________________________________________________________________________________________
conv1d_17 (Conv1D)              (None, 192, 64)      139264      conv1d_16[0][0]                  
__________________________________________________________________________________________________
conv1d_18 (Conv1D)              (None, 192, 64)      69632       conv1d_16[0][0]                  
__________________________________________________________________________________________________
conv1d_19 (Conv1D)              (None, 192, 64)      34816       conv1d_16[0][0]                  
__________________________________________________________________________________________________
conv1d_20 (Conv1D)              (None, 192, 64)      16384       max_pooling1d_3[0][0]            
__________________________________________________________________________________________________
concatenate_3 (Concatenate)     (None, 192, 256)     0           conv1d_17[0][0]                  
                                                                 conv1d_18[0][0]                  
                                                                 conv1d_19[0][0]                  
                                                                 conv1d_20[0][0]                  
__________________________________________________________________________________________________
batch_normalization_5 (BatchNor (None, 192, 256)     1024        concatenate_3[0][0]              
__________________________________________________________________________________________________
activation_4 (Activation)       (None, 192, 256)     0           batch_normalization_5[0][0]      
__________________________________________________________________________________________________
conv1d_21 (Conv1D)              (None, 192, 32)      8192        activation_4[0][0]               
__________________________________________________________________________________________________
max_pooling1d_4 (MaxPooling1D)  (None, 192, 256)     0           activation_4[0][0]               
__________________________________________________________________________________________________
conv1d_22 (Conv1D)              (None, 192, 64)      139264      conv1d_21[0][0]                  
__________________________________________________________________________________________________
conv1d_23 (Conv1D)              (None, 192, 64)      69632       conv1d_21[0][0]                  
__________________________________________________________________________________________________
conv1d_24 (Conv1D)              (None, 192, 64)      34816       conv1d_21[0][0]                  
__________________________________________________________________________________________________
conv1d_25 (Conv1D)              (None, 192, 64)      16384       max_pooling1d_4[0][0]            
__________________________________________________________________________________________________
concatenate_4 (Concatenate)     (None, 192, 256)     0           conv1d_22[0][0]                  
                                                                 conv1d_23[0][0]                  
                                                                 conv1d_24[0][0]                  
                                                                 conv1d_25[0][0]                  
__________________________________________________________________________________________________
batch_normalization_6 (BatchNor (None, 192, 256)     1024        concatenate_4[0][0]              
__________________________________________________________________________________________________
activation_5 (Activation)       (None, 192, 256)     0           batch_normalization_6[0][0]      
__________________________________________________________________________________________________
global_average_pooling1d (Globa (None, 256)          0           activation_5[0][0]               
__________________________________________________________________________________________________
dense (Dense)                   (None, 2)            514         global_average_pooling1d[0][0]   
==================================================================================================
Total params: 1,326,726
Trainable params: 1,323,636
Non-trainable params: 3,090
__________________________________________________________________________________________________

+++Hyperparameters+++
Number of Epochs: 350
Batch Size: 64
Learning rate: 0.0005
…
