…
340  0.012952  0.999728  0.293322      0.948537  0.000100
341  0.013647  0.999456  0.257432      0.950555  0.000100
342  0.013400  0.999320  0.236823      0.949546  0.000100
343  0.014938  0.999456  0.288700      0.948537  0.000100
344  0.013338  0.999456  0.273698      0.948537  0.000100
345  0.012661  0.999456  0.251769      0.949546  0.000100
346  0.012133  1.000000  0.248638      0.949546  0.000100

Model: "sequential_2"
_________________________________________________________________
Layer (type)                 Output Shape              Param #   
=================================================================
batch_normalization_9 (Batch (None, 128, 9)            36        
_________________________________________________________________
conv1d_26 (Conv1D)           (None, 128, 32)           896       
_________________________________________________________________
batch_normalization_10 (Batc (None, 128, 32)           128       
_________________________________________________________________
activation_6 (Activation)    (None, 128, 32)           0         
_________________________________________________________________
conv1d_27 (Conv1D)           (None, 128, 64)           6208      
_________________________________________________________________
batch_normalization_11 (Batc (None, 128, 64)           256       
_________________________________________________________________
activation_7 (Activation)    (None, 128, 64)           0         
_________________________________________________________________
conv1d_28 (Conv1D)           (None, 128, 32)           6176      
_________________________________________________________________
batch_normalization_12 (Batc (None, 128, 32)           128       
_________________________________________________________________
activation_8 (Activation)    (None, 128, 32)           0         
_________________________________________________________________
flatten (Flatten)            (None, 4096)              0         
_________________________________________________________________
dense_4 (Dense)              (None, 100)               409700    
_________________________________________________________________
activation_9 (Activation)    (None, 100)               0         
_________________________________________________________________
dense_5 (Dense)              (None, 6)                 606       
_________________________________________________________________
batch_normalization_13 (Batc (None, 6)                 24        
_________________________________________________________________
activation_10 (Activation)   (None, 6)                 0         
=================================================================
Total params: 424,158
Trainable params: 423,872
Non-trainable params: 286
_________________________________________________________________

+++Hyperparameters+++
Number of Epochs: 350
Batch Size: 64
Filters: [32, 64, 32]
Fc hidden nodes: 100
Learning rate: 0.0005
Regularization rate: 9.3e-05


Test Accuracy: 91.66666865348816
…
343  0.005380  0.999184  0.160391      0.976791  0.000100
344  0.007175  0.998776  0.195130      0.972755  0.000100
345  0.005016  0.999184  0.190313      0.974773  0.000100
346  0.004120  0.999728  0.177888      0.975782  0.000100
347  0.004946  0.999456  0.175551      0.975782  0.000100
348  0.005610  0.999184  0.186385      0.975782  0.000100
349  0.003606  0.999864  0.186013      0.974773  0.000100

Model: "sequential_3"
_________________________________________________________________
Layer (type)                 Output Shape              Param #   
=================================================================
reshape (Reshape)            (None, 4, 32, 9)          0         
_________________________________________________________________
batch_normalization_14 (Batc (None, 4, 32, 9)          36        
_________________________________________________________________
time_distributed (TimeDistri (None, 4, 32, 32)         896       
_________________________________________________________________
time_distributed_1 (TimeDist (None, 4, 28, 64)         10304     
_________________________________________________________________
time_distributed_2 (TimeDist (None, 4, 14, 64)         0         
_________________________________________________________________
time_distributed_3 (TimeDist (None, 4, 10, 64)         20544     
_________________________________________________________________
time_distributed_4 (TimeDist (None, 4, 8, 32)          6176      
_________________________________________________________________
time_distributed_5 (TimeDist (None, 4, 4, 32)          0         
_________________________________________________________________
time_distributed_6 (TimeDist (None, 4, 128)            0         
_________________________________________________________________
lstm_3 (LSTM)                (None, 4, 512)            1312768   
_________________________________________________________________
lstm_4 (LSTM)                (None, 512)               2099200   
_________________________________________________________________
dropout_1 (Dropout)          (None, 512)               0         
_________________________________________________________________
dense_6 (Dense)              (None, 100)               51300     
_________________________________________________________________
dense_7 (Dense)              (None, 6)                 606       
=================================================================
Total params: 3,501,830
Trainable params: 3,501,812
Non-trainable params: 18
_________________________________________________________________

+++Hyperparameters+++
Number of Epochs: 350
Batch Size: 64
N hidden: 512
N steps: 4
Length: 32
N signals: 9
Learning rate: 0.0005
Cnn depth: 3
Lstm depth: 2
Regularization rate: 9.3e-05
…
325  0.039123  0.985446  0.146830      0.950555  0.000105
326  0.039777  0.985446  0.097887      0.969728  0.000105
327  0.039706  0.984086  0.127033      0.957619  0.000105
328  0.039947  0.985310  0.136928      0.961655  0.000105
329  0.044946  0.982590  0.142452      0.957619  0.000105
330  0.042574  0.983950  0.130589      0.956609  0.000105
331  0.036718  0.985310  0.116484      0.963673  0.000105

Model: "sequential_4"
_________________________________________________________________
Layer (type)                 Output Shape              Param #   
=================================================================
batch_normalization_15 (Batc (None, 128, 9)            36        
_________________________________________________________________
lstm_5 (LSTM)                (None, 128)               70656     
_________________________________________________________________
dropout_2 (Dropout)          (None, 128)               0         
_________________________________________________________________
dense_8 (Dense)              (None, 100)               12900     
_________________________________________________________________
dense_9 (Dense)              (None, 6)                 606       
=================================================================
Total params: 84,198
Trainable params: 84,180
Non-trainable params: 18
_________________________________________________________________

+++Hyperparameters+++
Number of Epochs: 350
Batch Size: 64
N hidden: 128
Learning rate: 0.0005
Regularization rate: 9.3e-05


Test Accuracy: 90.7975435256958
Test Loss: 0.3296007513999939

…
349  0.021258  0.997960  0.121333      0.981837  0.000100

Model: "model_1"
__________________________________________________________________________________________________
Layer (type)                    Output Shape         Param #     Connected to                     
==================================================================================================
input_2 (InputLayer)            [(None, 128, 9)]     0                                            
__________________________________________________________________________________________________
batch_normalization_16 (BatchNo (None, 128, 9)       36          input_2[0][0]                    
__________________________________________________________________________________________________
conv1d_33 (Conv1D)              (None, 128, 32)      288         batch_normalization_16[0][0]     
__________________________________________________________________________________________________
max_pooling1d_7 (MaxPooling1D)  (None, 128, 9)       0           batch_normalization_16[0][0]     
__________________________________________________________________________________________________
conv1d_34 (Conv1D)              (None, 128, 64)      139264      conv1d_33[0][0]                  
__________________________________________________________________________________________________
conv1d_35 (Conv1D)              (None, 128, 64)      69632       conv1d_33[0][0]                  
__________________________________________________________________________________________________
conv1d_36 (Conv1D)              (None, 128, 64)      34816       conv1d_33[0][0]                  
__________________________________________________________________________________________________
conv1d_37 (Conv1D)              (None, 128, 64)      576         max_pooling1d_7[0][0]            
__________________________________________________________________________________________________
concatenate_5 (Concatenate)     (None, 128, 256)     0           conv1d_34[0][0]                  
                                                                 conv1d_35[0][0]                  
                                                                 conv1d_36[0][0]                  
                                                                 conv1d_37[0][0]                  
__________________________________________________________________________________________________
batch_normalization_17 (BatchNo (None, 128, 256)     1024        concatenate_5[0][0]              
__________________________________________________________________________________________________
activation_11 (Activation)      (None, 128, 256)     0           batch_normalization_17[0][0]     
__________________________________________________________________________________________________
conv1d_38 (Conv1D)              (None, 128, 32)      8192        activation_11[0][0]              
__________________________________________________________________________________________________
max_pooling1d_8 (MaxPooling1D)  (None, 128, 256)     0           activation_11[0][0]              
__________________________________________________________________________________________________
conv1d_39 (Conv1D)              (None, 128, 64)      139264      conv1d_38[0][0]                  
__________________________________________________________________________________________________
conv1d_40 (Conv1D)              (None, 128, 64)      69632       conv1d_38[0][0]                  
__________________________________________________________________________________________________
conv1d_41 (Conv1D)              (None, 128, 64)      34816       conv1d_38[0][0]                  
__________________________________________________________________________________________________
conv1d_42 (Conv1D)              (None, 128, 64)      16384       max_pooling1d_8[0][0]            
__________________________________________________________________________________________________
concatenate_6 (Concatenate)     (None, 128, 256)     0           conv1d_39[0][0]                  
                                                                 conv1d_40[0][0]                  
                                                                 conv1d_41[0][0]                  
                                                                 conv1d_42[0][0]                  
__________________________________________________________________________________________________
batch_normalization_18 (BatchNo (None, 128, 256)     1024        concatenate_6[0][0]              
__________________________________________________________________________________________________
activation_12 (Activation)      (None, 128, 256)     0           batch_normalization_18[0][0]     
__________________________________________________________________________________________________
conv1d_43 (Conv1D)              (None, 128, 32)      8192        activation_12[0][0]              
__________________________________________________________________________________________________
max_pooling1d_9 (MaxPooling1D)  (None, 128, 256)     0           activation_12[0][0]              
__________________________________________________________________________________________________
conv1d_44 (Conv1D)              (None, 128, 64)      139264      conv1d_43[0][0]                  
__________________________________________________________________________________________________
conv1d_45 (Conv1D)              (None, 128, 64)      69632       conv1d_43[0][0]                  
__________________________________________________________________________________________________
conv1d_46 (Conv1D)              (None, 128, 64)      34816       conv1d_43[0][0]                  
__________________________________________________________________________________________________
conv1d_47 (Conv1D)              (None, 128, 64)      16384       max_pooling1d_9[0][0]            
__________________________________________________________________________________________________
concatenate_7 (Concatenate)     (None, 128, 256)     0           conv1d_44[0][0]                  
                                                                 conv1d_45[0][0]                  
                                                                 conv1d_46[0][0]                  
                                                                 conv1d_47[0][0]                  
__________________________________________________________________________________________________
conv1d_48 (Conv1D)              (None, 128, 256)     2304        batch_normalization_16[0][0]     
__________________________________________________________________________________________________
batch_normalization_19 (BatchNo (None, 128, 256)     1024        concatenate_7[0][0]              
__________________________________________________________________________________________________
batch_normalization_20 (BatchNo (None, 128, 256)     1024        conv1d_48[0][0]                  
__________________________________________________________________________________________________
activation_13 (Activation)      (None, 128, 256)     0           batch_normalization_19[0][0]     
__________________________________________________________________________________________________
add_1 (Add)                     (None, 128, 256)     0           batch_normalization_20[0][0]     
                                                                 activation_13[0][0]              
__________________________________________________________________________________________________
activation_14 (Activation)      (None, 128, 256)     0           add_1[0][0]                      
__________________________________________________________________________________________________
conv1d_49 (Conv1D)              (None, 128, 32)      8192        activation_14[0][0]              
__________________________________________________________________________________________________
max_pooling1d_10 (MaxPooling1D) (None, 128, 256)     0           activation_14[0][0]              
__________________________________________________________________________________________________
conv1d_50 (Conv1D)              (None, 128, 64)      139264      conv1d_49[0][0]                  
__________________________________________________________________________________________________
conv1d_51 (Conv1D)              (None, 128, 64)      69632       conv1d_49[0][0]                  
__________________________________________________________________________________________________
conv1d_52 (Conv1D)              (None, 128, 64)      34816       conv1d_49[0][0]                  
__________________________________________________________________________________________________
conv1d_53 (Conv1D)              (None, 128, 64)      16384       max_pooling1d_10[0][0]           
__________________________________________________________________________________________________
concatenate_8 (Concatenate)     (None, 128, 256)     0           conv1d_50[0][0]                  
                                                                 conv1d_51[0][0]                  
                                                                 conv1d_52[0][0]                  
                                                                 conv1d_53[0][0]                  
__________________________________________________________________________________________________
batch_normalization_21 (BatchNo (None, 128, 256)     1024        concatenate_8[0][0]              
__________________________________________________________________________________________________
activation_15 (Activation)      (None, 128, 256)     0           batch_normalization_21[0][0]     
__________________________________________________________________________________________________
conv1d_54 (Conv1D)              (None, 128, 32)      8192        activation_15[0][0]              
__________________________________________________________________________________________________
max_pooling1d_11 (MaxPooling1D) (None, 128, 256)     0           activation_15[0][0]              
__________________________________________________________________________________________________
conv1d_55 (Conv1D)              (None, 128, 64)      139264      conv1d_54[0][0]                  
__________________________________________________________________________________________________
conv1d_56 (Conv1D)              (None, 128, 64)      69632       conv1d_54[0][0]                  
__________________________________________________________________________________________________
conv1d_57 (Conv1D)              (None, 128, 64)      34816       conv1d_54[0][0]                  
__________________________________________________________________________________________________
conv1d_58 (Conv1D)              (None, 128, 64)      16384       max_pooling1d_11[0][0]           
__________________________________________________________________________________________________
concatenate_9 (Concatenate)     (None, 128, 256)     0           conv1d_55[0][0]                  
                                                                 conv1d_56[0][0]                  
                                                                 conv1d_57[0][0]                  
                                                                 conv1d_58[0][0]                  
__________________________________________________________________________________________________
batch_normalization_22 (BatchNo (None, 128, 256)     1024        concatenate_9[0][0]              
__________________________________________________________________________________________________
activation_16 (Activation)      (None, 128, 256)     0           batch_normalization_22[0][0]     
__________________________________________________________________________________________________
global_average_pooling1d_1 (Glo (None, 256)          0           activation_16[0][0]              
__________________________________________________________________________________________________
dense_10 (Dense)                (None, 6)            1542        global_average_pooling1d_1[0][0] 
==================================================================================================
Total params: 1,327,754
Trainable params: 1,324,664
Non-trainable params: 3,090
__________________________________________________________________________________________________

+++Hyperparameters+++
Number of Epochs: 350
Batch Size: 64
Learning rate: 0.0005
…
