…
349  0.020033  0.998096  0.031033      0.994955  0.000100

Model: "model_1"
__________________________________________________________________________________________________
Layer (type)                    Output Shape         Param #     Connected to                     
==================================================================================================
input_2 (InputLayer)            [(None, 128, 9)]     0                                            
__________________________________________________________________________________________________
batch_normalization_8 (BatchNor (None, 128, 9)       36          input_2[0][0]                    
__________________________________________________________________________________________________
conv1d_26 (Conv1D)              (None, 128, 32)      288         batch_normalization_8[0][0]      
__________________________________________________________________________________________________
max_pooling1d_5 (MaxPooling1D)  (None, 128, 9)       0           batch_normalization_8[0][0]      
__________________________________________________________________________________________________
conv1d_27 (Conv1D)              (None, 128, 64)      139264      conv1d_26[0][0]                  
__________________________________________________________________________________________________
conv1d_28 (Conv1D)              (None, 128, 64)      69632       conv1d_26[0][0]                  
__________________________________________________________________________________________________
conv1d_29 (Conv1D)              (None, 128, 64)      34816       conv1d_26[0][0]                  
__________________________________________________________________________________________________
conv1d_30 (Conv1D)              (None, 128, 64)      576         max_pooling1d_5[0][0]            
__________________________________________________________________________________________________
concatenate_5 (Concatenate)     (None, 128, 256)     0           conv1d_27[0][0]                  
                                                                 conv1d_28[0][0]                  
                                                                 conv1d_29[0][0]                  
                                                                 conv1d_30[0][0]                  
__________________________________________________________________________________________________
batch_normalization_9 (BatchNor (None, 128, 256)     1024        concatenate_5[0][0]              
__________________________________________________________________________________________________
activation_6 (Activation)       (None, 128, 256)     0           batch_normalization_9[0][0]      
__________________________________________________________________________________________________
conv1d_31 (Conv1D)              (None, 128, 32)      8192        activation_6[0][0]               
__________________________________________________________________________________________________
max_pooling1d_6 (MaxPooling1D)  (None, 128, 256)     0           activation_6[0][0]               
__________________________________________________________________________________________________
conv1d_32 (Conv1D)              (None, 128, 64)      139264      conv1d_31[0][0]                  
__________________________________________________________________________________________________
conv1d_33 (Conv1D)              (None, 128, 64)      69632       conv1d_31[0][0]                  
__________________________________________________________________________________________________
conv1d_34 (Conv1D)              (None, 128, 64)      34816       conv1d_31[0][0]                  
__________________________________________________________________________________________________
conv1d_35 (Conv1D)              (None, 128, 64)      16384       max_pooling1d_6[0][0]            
__________________________________________________________________________________________________
concatenate_6 (Concatenate)     (None, 128, 256)     0           conv1d_32[0][0]                  
                                                                 conv1d_33[0][0]                  
                                                                 conv1d_34[0][0]                  
                                                                 conv1d_35[0][0]                  
__________________________________________________________________________________________________
batch_normalization_10 (BatchNo (None, 128, 256)     1024        concatenate_6[0][0]              
__________________________________________________________________________________________________
activation_7 (Activation)       (None, 128, 256)     0           batch_normalization_10[0][0]     
__________________________________________________________________________________________________
conv1d_36 (Conv1D)              (None, 128, 32)      8192        activation_7[0][0]               
__________________________________________________________________________________________________
max_pooling1d_7 (MaxPooling1D)  (None, 128, 256)     0           activation_7[0][0]               
__________________________________________________________________________________________________
conv1d_37 (Conv1D)              (None, 128, 64)      139264      conv1d_36[0][0]                  
__________________________________________________________________________________________________
conv1d_38 (Conv1D)              (None, 128, 64)      69632       conv1d_36[0][0]                  
__________________________________________________________________________________________________
conv1d_39 (Conv1D)              (None, 128, 64)      34816       conv1d_36[0][0]                  
__________________________________________________________________________________________________
conv1d_40 (Conv1D)              (None, 128, 64)      16384       max_pooling1d_7[0][0]            
__________________________________________________________________________________________________
concatenate_7 (Concatenate)     (None, 128, 256)     0           conv1d_37[0][0]                  
                                                                 conv1d_38[0][0]                  
                                                                 conv1d_39[0][0]                  
                                                                 conv1d_40[0][0]                  
__________________________________________________________________________________________________
conv1d_41 (Conv1D)              (None, 128, 256)     2304        batch_normalization_8[0][0]      
__________________________________________________________________________________________________
batch_normalization_11 (BatchNo (None, 128, 256)     1024        concatenate_7[0][0]              
__________________________________________________________________________________________________
batch_normalization_12 (BatchNo (None, 128, 256)     1024        conv1d_41[0][0]                  
__________________________________________________________________________________________________
activation_8 (Activation)       (None, 128, 256)     0           batch_normalization_11[0][0]     
__________________________________________________________________________________________________
add_1 (Add)                     (None, 128, 256)     0           batch_normalization_12[0][0]     
                                                                 activation_8[0][0]               
__________________________________________________________________________________________________
activation_9 (Activation)       (None, 128, 256)     0           add_1[0][0]                      
__________________________________________________________________________________________________
conv1d_42 (Conv1D)              (None, 128, 32)      8192        activation_9[0][0]               
__________________________________________________________________________________________________
max_pooling1d_8 (MaxPooling1D)  (None, 128, 256)     0           activation_9[0][0]               
__________________________________________________________________________________________________
conv1d_43 (Conv1D)              (None, 128, 64)      139264      conv1d_42[0][0]                  
__________________________________________________________________________________________________
conv1d_44 (Conv1D)              (None, 128, 64)      69632       conv1d_42[0][0]                  
__________________________________________________________________________________________________
conv1d_45 (Conv1D)              (None, 128, 64)      34816       conv1d_42[0][0]                  
__________________________________________________________________________________________________
conv1d_46 (Conv1D)              (None, 128, 64)      16384       max_pooling1d_8[0][0]            
__________________________________________________________________________________________________
concatenate_8 (Concatenate)     (None, 128, 256)     0           conv1d_43[0][0]                  
                                                                 conv1d_44[0][0]                  
                                                                 conv1d_45[0][0]                  
                                                                 conv1d_46[0][0]                  
__________________________________________________________________________________________________
batch_normalization_13 (BatchNo (None, 128, 256)     1024        concatenate_8[0][0]              
__________________________________________________________________________________________________
activation_10 (Activation)      (None, 128, 256)     0           batch_normalization_13[0][0]     
__________________________________________________________________________________________________
conv1d_47 (Conv1D)              (None, 128, 32)      8192        activation_10[0][0]              
__________________________________________________________________________________________________
max_pooling1d_9 (MaxPooling1D)  (None, 128, 256)     0           activation_10[0][0]              
__________________________________________________________________________________________________
conv1d_48 (Conv1D)              (None, 128, 64)      139264      conv1d_47[0][0]                  
__________________________________________________________________________________________________
conv1d_49 (Conv1D)              (None, 128, 64)      69632       conv1d_47[0][0]                  
__________________________________________________________________________________________________
conv1d_50 (Conv1D)              (None, 128, 64)      34816       conv1d_47[0][0]                  
__________________________________________________________________________________________________
conv1d_51 (Conv1D)              (None, 128, 64)      16384       max_pooling1d_9[0][0]            
__________________________________________________________________________________________________
concatenate_9 (Concatenate)     (None, 128, 256)     0           conv1d_48[0][0]                  
                                                                 conv1d_49[0][0]                  
                                                                 conv1d_50[0][0]                  
                                                                 conv1d_51[0][0]                  
__________________________________________________________________________________________________
batch_normalization_14 (BatchNo (None, 128, 256)     1024        concatenate_9[0][0]              
__________________________________________________________________________________________________
activation_11 (Activation)      (None, 128, 256)     0           batch_normalization_14[0][0]     
__________________________________________________________________________________________________
global_average_pooling1d_1 (Glo (None, 256)          0           activation_11[0][0]              
__________________________________________________________________________________________________
dense_2 (Dense)                 (None, 6)            1542        global_average_pooling1d_1[0][0] 
==================================================================================================
Total params: 1,327,754
Trainable params: 1,324,664
Non-trainable params: 3,090
__________________________________________________________________________________________________

+++Hyperparameters+++
Number of Epochs: 350
Batch Size: 64
Learning rate: 0.0005
…
331  0.013260  0.999456  0.497149      0.887992  0.000100
332  0.013494  0.999864  0.299155      0.952573  0.000100
333  0.014426  0.999320  0.349124      0.944501  0.000100
334  0.012941  0.999864  0.319977      0.945510  0.000100
335  0.015843  0.998776  0.334352      0.943491  0.000100
336  0.013032  0.999592  0.298590      0.945510  0.000100
337  0.013453  0.999592  0.363143      0.934410  0.000100

Model: "sequential_1"
_________________________________________________________________
Layer (type)                 Output Shape              Param #   
=================================================================
batch_normalization_15 (Batc (None, 128, 9)            36        
_________________________________________________________________
conv1d_52 (Conv1D)           (None, 128, 32)           896       
_________________________________________________________________
batch_normalization_16 (Batc (None, 128, 32)           128       
_________________________________________________________________
activation_12 (Activation)   (None, 128, 32)           0         
_________________________________________________________________
conv1d_53 (Conv1D)           (None, 128, 64)           6208      
_________________________________________________________________
batch_normalization_17 (Batc (None, 128, 64)           256       
_________________________________________________________________
activation_13 (Activation)   (None, 128, 64)           0         
_________________________________________________________________
conv1d_54 (Conv1D)           (None, 128, 32)           6176      
_________________________________________________________________
batch_normalization_18 (Batc (None, 128, 32)           128       
_________________________________________________________________
activation_14 (Activation)   (None, 128, 32)           0         
_________________________________________________________________
flatten (Flatten)            (None, 4096)              0         
_________________________________________________________________
dense_3 (Dense)              (None, 100)               409700    
_________________________________________________________________
activation_15 (Activation)   (None, 100)               0         
_________________________________________________________________
dense_4 (Dense)              (None, 6)                 606       
_________________________________________________________________
batch_normalization_19 (Batc (None, 6)                 24        
_________________________________________________________________
activation_16 (Activation)   (None, 6)                 0         
=================================================================
Total params: 424,158
Trainable params: 423,872
Non-trainable params: 286
_________________________________________________________________

+++Hyperparameters+++
Number of Epochs: 350
Batch Size: 64
Filters: [32, 64, 32]
Fc hidden nodes: 100
Learning rate: 0.0005
Regularization rate: 9.3e-05


Test Accuracy: 91.76891446113586
…
331  0.013260  0.999456  0.497149      0.887992  0.000100
332  0.013494  0.999864  0.299155      0.952573  0.000100
333  0.014426  0.999320  0.349124      0.944501  0.000100
334  0.012941  0.999864  0.319977      0.945510  0.000100
335  0.015843  0.998776  0.334352      0.943491  0.000100
336  0.013032  0.999592  0.298590      0.945510  0.000100
337  0.013453  0.999592  0.363143      0.934410  0.000100

Model: "sequential_2"
_________________________________________________________________
Layer (type)                 Output Shape              Param #   
=================================================================
reshape (Reshape)            (None, 4, 32, 9)          0         
_________________________________________________________________
batch_normalization_20 (Batc (None, 4, 32, 9)          36        
_________________________________________________________________
time_distributed (TimeDistri (None, 4, 32, 32)         896       
_________________________________________________________________
time_distributed_1 (TimeDist (None, 4, 28, 64)         10304     
_________________________________________________________________
time_distributed_2 (TimeDist (None, 4, 14, 64)         0         
_________________________________________________________________
time_distributed_3 (TimeDist (None, 4, 10, 64)         20544     
_________________________________________________________________
time_distributed_4 (TimeDist (None, 4, 8, 32)          6176      
_________________________________________________________________
time_distributed_5 (TimeDist (None, 4, 4, 32)          0         
_________________________________________________________________
time_distributed_6 (TimeDist (None, 4, 128)            0         
_________________________________________________________________
lstm_2 (LSTM)                (None, 4, 512)            1312768   
_________________________________________________________________
lstm_3 (LSTM)                (None, 512)               2099200   
_________________________________________________________________
dropout_1 (Dropout)          (None, 512)               0         
_________________________________________________________________
dense_5 (Dense)              (None, 100)               51300     
_________________________________________________________________
dense_6 (Dense)              (None, 6)                 606       
=================================================================
Total params: 3,501,830
Trainable params: 3,501,812
Non-trainable params: 18
_________________________________________________________________

+++Hyperparameters+++
Number of Epochs: 350
Batch Size: 64
N hidden: 512
N steps: 4
Length: 32
N signals: 9
Learning rate: 0.0005
Cnn depth: 3
Lstm depth: 2
Regularization rate: 9.3e-05
…
343  0.013806  0.995375  0.119360      0.975782  0.000100
344  0.010683  0.995919  0.138479      0.972755  0.000100
345  0.014171  0.995647  0.119750      0.976791  0.000100
346  0.019493  0.993607  0.121649      0.975782  0.000100
347  0.016323  0.994151  0.160181      0.971746  0.000100
348  0.015365  0.995103  0.152840      0.972755  0.000100
349  0.014552  0.995783  0.155856      0.970737  0.000100

Model: "sequential_3"
_________________________________________________________________
Layer (type)                 Output Shape              Param #   
=================================================================
batch_normalization_21 (Batc (None, 128, 9)            36        
_________________________________________________________________
lstm_4 (LSTM)                (None, 128)               70656     
_________________________________________________________________
dropout_2 (Dropout)          (None, 128)               0         
_________________________________________________________________
dense_7 (Dense)              (None, 100)               12900     
_________________________________________________________________
dense_8 (Dense)              (None, 6)                 606       
=================================================================
Total params: 84,198
Trainable params: 84,180
Non-trainable params: 18
_________________________________________________________________

+++Hyperparameters+++
Number of Epochs: 350
Batch Size: 64
N hidden: 128
Learning rate: 0.0005
Regularization rate: 9.3e-05


Test Accuracy: 91.9222891330719
Test Loss: 0.45337140560150146
…
