…
349  0.021051  0.998776  0.074672      0.981837  0.0001

[350 rows x 5 columns]

Model: "model"
__________________________________________________________________________________________________
Layer (type)                    Output Shape         Param #     Connected to                     
==================================================================================================
input_1 (InputLayer)            [(None, 128, 9)]     0                                            
__________________________________________________________________________________________________
batch_normalization (BatchNorma (None, 128, 9)       36          input_1[0][0]                    
__________________________________________________________________________________________________
conv1d (Conv1D)                 (None, 128, 32)      288         batch_normalization[0][0]        
__________________________________________________________________________________________________
max_pooling1d (MaxPooling1D)    (None, 128, 9)       0           batch_normalization[0][0]        
__________________________________________________________________________________________________
conv1d_1 (Conv1D)               (None, 128, 64)      139264      conv1d[0][0]                     
__________________________________________________________________________________________________
conv1d_2 (Conv1D)               (None, 128, 64)      69632       conv1d[0][0]                     
__________________________________________________________________________________________________
conv1d_3 (Conv1D)               (None, 128, 64)      34816       conv1d[0][0]                     
__________________________________________________________________________________________________
conv1d_4 (Conv1D)               (None, 128, 64)      576         max_pooling1d[0][0]              
__________________________________________________________________________________________________
concatenate (Concatenate)       (None, 128, 256)     0           conv1d_1[0][0]                   
                                                                 conv1d_2[0][0]                   
                                                                 conv1d_3[0][0]                   
                                                                 conv1d_4[0][0]                   
__________________________________________________________________________________________________
batch_normalization_1 (BatchNor (None, 128, 256)     1024        concatenate[0][0]                
__________________________________________________________________________________________________
activation (Activation)         (None, 128, 256)     0           batch_normalization_1[0][0]      
__________________________________________________________________________________________________
conv1d_5 (Conv1D)               (None, 128, 32)      8192        activation[0][0]                 
__________________________________________________________________________________________________
max_pooling1d_1 (MaxPooling1D)  (None, 128, 256)     0           activation[0][0]                 
__________________________________________________________________________________________________
conv1d_6 (Conv1D)               (None, 128, 64)      139264      conv1d_5[0][0]                   
__________________________________________________________________________________________________
conv1d_7 (Conv1D)               (None, 128, 64)      69632       conv1d_5[0][0]                   
__________________________________________________________________________________________________
conv1d_8 (Conv1D)               (None, 128, 64)      34816       conv1d_5[0][0]                   
__________________________________________________________________________________________________
conv1d_9 (Conv1D)               (None, 128, 64)      16384       max_pooling1d_1[0][0]            
__________________________________________________________________________________________________
concatenate_1 (Concatenate)     (None, 128, 256)     0           conv1d_6[0][0]                   
                                                                 conv1d_7[0][0]                   
                                                                 conv1d_8[0][0]                   
                                                                 conv1d_9[0][0]                   
__________________________________________________________________________________________________
batch_normalization_2 (BatchNor (None, 128, 256)     1024        concatenate_1[0][0]              
__________________________________________________________________________________________________
activation_1 (Activation)       (None, 128, 256)     0           batch_normalization_2[0][0]      
__________________________________________________________________________________________________
conv1d_10 (Conv1D)              (None, 128, 32)      8192        activation_1[0][0]               
__________________________________________________________________________________________________
max_pooling1d_2 (MaxPooling1D)  (None, 128, 256)     0           activation_1[0][0]               
__________________________________________________________________________________________________
conv1d_11 (Conv1D)              (None, 128, 64)      139264      conv1d_10[0][0]                  
__________________________________________________________________________________________________
conv1d_12 (Conv1D)              (None, 128, 64)      69632       conv1d_10[0][0]                  
__________________________________________________________________________________________________
conv1d_13 (Conv1D)              (None, 128, 64)      34816       conv1d_10[0][0]                  
__________________________________________________________________________________________________
conv1d_14 (Conv1D)              (None, 128, 64)      16384       max_pooling1d_2[0][0]            
__________________________________________________________________________________________________
concatenate_2 (Concatenate)     (None, 128, 256)     0           conv1d_11[0][0]                  
                                                                 conv1d_12[0][0]                  
                                                                 conv1d_13[0][0]                  
                                                                 conv1d_14[0][0]                  
__________________________________________________________________________________________________
conv1d_15 (Conv1D)              (None, 128, 256)     2304        batch_normalization[0][0]        
__________________________________________________________________________________________________
batch_normalization_3 (BatchNor (None, 128, 256)     1024        concatenate_2[0][0]              
__________________________________________________________________________________________________
batch_normalization_4 (BatchNor (None, 128, 256)     1024        conv1d_15[0][0]                  
__________________________________________________________________________________________________
activation_2 (Activation)       (None, 128, 256)     0           batch_normalization_3[0][0]      
__________________________________________________________________________________________________
add (Add)                       (None, 128, 256)     0           batch_normalization_4[0][0]      
                                                                 activation_2[0][0]               
__________________________________________________________________________________________________
activation_3 (Activation)       (None, 128, 256)     0           add[0][0]                        
__________________________________________________________________________________________________
conv1d_16 (Conv1D)              (None, 128, 32)      8192        activation_3[0][0]               
__________________________________________________________________________________________________
max_pooling1d_3 (MaxPooling1D)  (None, 128, 256)     0           activation_3[0][0]               
__________________________________________________________________________________________________
conv1d_17 (Conv1D)              (None, 128, 64)      139264      conv1d_16[0][0]                  
__________________________________________________________________________________________________
conv1d_18 (Conv1D)              (None, 128, 64)      69632       conv1d_16[0][0]                  
__________________________________________________________________________________________________
conv1d_19 (Conv1D)              (None, 128, 64)      34816       conv1d_16[0][0]                  
__________________________________________________________________________________________________
conv1d_20 (Conv1D)              (None, 128, 64)      16384       max_pooling1d_3[0][0]            
__________________________________________________________________________________________________
concatenate_3 (Concatenate)     (None, 128, 256)     0           conv1d_17[0][0]                  
                                                                 conv1d_18[0][0]                  
                                                                 conv1d_19[0][0]                  
                                                                 conv1d_20[0][0]                  
__________________________________________________________________________________________________
batch_normalization_5 (BatchNor (None, 128, 256)     1024        concatenate_3[0][0]              
__________________________________________________________________________________________________
activation_4 (Activation)       (None, 128, 256)     0           batch_normalization_5[0][0]      
__________________________________________________________________________________________________
conv1d_21 (Conv1D)              (None, 128, 32)      8192        activation_4[0][0]               
__________________________________________________________________________________________________
max_pooling1d_4 (MaxPooling1D)  (None, 128, 256)     0           activation_4[0][0]               
__________________________________________________________________________________________________
conv1d_22 (Conv1D)              (None, 128, 64)      139264      conv1d_21[0][0]                  
__________________________________________________________________________________________________
conv1d_23 (Conv1D)              (None, 128, 64)      69632       conv1d_21[0][0]                  
__________________________________________________________________________________________________
conv1d_24 (Conv1D)              (None, 128, 64)      34816       conv1d_21[0][0]                  
__________________________________________________________________________________________________
conv1d_25 (Conv1D)              (None, 128, 64)      16384       max_pooling1d_4[0][0]            
__________________________________________________________________________________________________
concatenate_4 (Concatenate)     (None, 128, 256)     0           conv1d_22[0][0]                  
                                                                 conv1d_23[0][0]                  
                                                                 conv1d_24[0][0]                  
                                                                 conv1d_25[0][0]                  
__________________________________________________________________________________________________
batch_normalization_6 (BatchNor (None, 128, 256)     1024        concatenate_4[0][0]              
__________________________________________________________________________________________________
activation_5 (Activation)       (None, 128, 256)     0           batch_normalization_6[0][0]      
__________________________________________________________________________________________________
global_average_pooling1d (Globa (None, 256)          0           activation_5[0][0]               
__________________________________________________________________________________________________
dense (Dense)                   (None, 6)            1542        global_average_pooling1d[0][0]   
==================================================================================================
Total params: 1,327,754
Trainable params: 1,324,664
Non-trainable params: 3,090
__________________________________________________________________________________________________

+++Hyperparameters+++
Number of Epochs: 350
Batch Size: 64
Learning rate: 0.0005
…
173  0.023845  0.998912  0.255296      0.950555  0.000256
174  0.022005  0.998232  0.231153      0.951564  0.000256
175  0.023295  0.998368  0.258381      0.954591  0.000256
176  0.020258  0.999320  0.284231      0.949546  0.000256
177  0.022820  0.998232  0.290312      0.942482  0.000256
178  0.021023  0.998640  0.261807      0.946519  0.000256
179  0.020551  0.998776  0.279946      0.949546  0.000256

Model: "sequential"
_________________________________________________________________
Layer (type)                 Output Shape              Param #   
=================================================================
batch_normalization_7 (Batch (None, 128, 9)            36        
_________________________________________________________________
conv1d_26 (Conv1D)           (None, 128, 32)           896       
_________________________________________________________________
batch_normalization_8 (Batch (None, 128, 32)           128       
_________________________________________________________________
activation_6 (Activation)    (None, 128, 32)           0         
_________________________________________________________________
conv1d_27 (Conv1D)           (None, 128, 64)           6208      
_________________________________________________________________
batch_normalization_9 (Batch (None, 128, 64)           256       
_________________________________________________________________
activation_7 (Activation)    (None, 128, 64)           0         
_________________________________________________________________
conv1d_28 (Conv1D)           (None, 128, 32)           6176      
_________________________________________________________________
batch_normalization_10 (Batc (None, 128, 32)           128       
_________________________________________________________________
activation_8 (Activation)    (None, 128, 32)           0         
_________________________________________________________________
flatten (Flatten)            (None, 4096)              0         
_________________________________________________________________
dense_1 (Dense)              (None, 100)               409700    
_________________________________________________________________
activation_9 (Activation)    (None, 100)               0         
_________________________________________________________________
dense_2 (Dense)              (None, 6)                 606       
_________________________________________________________________
batch_normalization_11 (Batc (None, 6)                 24        
_________________________________________________________________
activation_10 (Activation)   (None, 6)                 0         
=================================================================
Total params: 424,158
Trainable params: 423,872
Non-trainable params: 286
_________________________________________________________________

+++Hyperparameters+++
Number of Epochs: 350
Batch Size: 64
Filters: [32, 64, 32]
Fc hidden nodes: 100
Learning rate: 0.0005
Regularization rate: 9.3e-05


Test Accuracy: 90.64416885375977
…
173  0.023845  0.998912  0.255296      0.950555  0.000256
174  0.022005  0.998232  0.231153      0.951564  0.000256
175  0.023295  0.998368  0.258381      0.954591  0.000256
176  0.020258  0.999320  0.284231      0.949546  0.000256
177  0.022820  0.998232  0.290312      0.942482  0.000256
178  0.021023  0.998640  0.261807      0.946519  0.000256
179  0.020551  0.998776  0.279946      0.949546  0.000256

Model: "sequential_1"
_________________________________________________________________
Layer (type)                 Output Shape              Param #   
=================================================================
reshape (Reshape)            (None, 4, 32, 9)          0         
_________________________________________________________________
batch_normalization_12 (Batc (None, 4, 32, 9)          36        
_________________________________________________________________
time_distributed (TimeDistri (None, 4, 32, 32)         896       
_________________________________________________________________
time_distributed_1 (TimeDist (None, 4, 28, 64)         10304     
_________________________________________________________________
time_distributed_2 (TimeDist (None, 4, 14, 64)         0         
_________________________________________________________________
time_distributed_3 (TimeDist (None, 4, 10, 64)         20544     
_________________________________________________________________
time_distributed_4 (TimeDist (None, 4, 8, 32)          6176      
_________________________________________________________________
time_distributed_5 (TimeDist (None, 4, 4, 32)          0         
_________________________________________________________________
time_distributed_6 (TimeDist (None, 4, 128)            0         
_________________________________________________________________
lstm (LSTM)                  (None, 4, 512)            1312768   
_________________________________________________________________
lstm_1 (LSTM)                (None, 512)               2099200   
_________________________________________________________________
dropout (Dropout)            (None, 512)               0         
_________________________________________________________________
dense_3 (Dense)              (None, 100)               51300     
_________________________________________________________________
dense_4 (Dense)              (None, 6)                 606       
=================================================================
Total params: 3,501,830
Trainable params: 3,501,812
Non-trainable params: 18
_________________________________________________________________

+++Hyperparameters+++
Number of Epochs: 350
Batch Size: 64
N hidden: 512
N steps: 4
Length: 32
N signals: 9
Learning rate: 0.0005
Cnn depth: 3
Lstm depth: 2
Regularization rate: 9.3e-05
…
187  0.042823  0.983270  0.110420      0.969728  0.000164
188  0.043068  0.983134  0.112378      0.970737  0.000164
189  0.043559  0.983134  0.130045      0.970737  0.000164
190  0.039070  0.984494  0.119195      0.971746  0.000164
191  0.041786  0.982862  0.143605      0.961655  0.000164
192  0.034940  0.985718  0.141026      0.959637  0.000164
193  0.036856  0.983814  0.128361      0.966700  0.000164

Model: "sequential_2"
_________________________________________________________________
Layer (type)                 Output Shape              Param #   
=================================================================
batch_normalization_13 (Batc (None, 128, 9)            36        
_________________________________________________________________
lstm_2 (LSTM)                (None, 128)               70656     
_________________________________________________________________
dropout_1 (Dropout)          (None, 128)               0         
_________________________________________________________________
dense_5 (Dense)              (None, 100)               12900     
_________________________________________________________________
dense_6 (Dense)              (None, 6)                 606       
=================================================================
Total params: 84,198
Trainable params: 84,180
Non-trainable params: 18
_________________________________________________________________

+++Hyperparameters+++
Number of Epochs: 350
Batch Size: 64
N hidden: 128
Learning rate: 0.0005
Regularization rate: 9.3e-05


Test Accuracy: 91.20654463768005
Test Loss: 0.3240664601325989
…
