…
349  0.027840  0.997654  0.792195      0.809687  0.000100

Model: "model_2"
__________________________________________________________________________________________________
Layer (type)                    Output Shape         Param #     Connected to                     
==================================================================================================
input_3 (InputLayer)            [(None, 256, 36)]    0                                            
__________________________________________________________________________________________________
batch_normalization_23 (BatchNo (None, 256, 36)      144         input_3[0][0]                    
__________________________________________________________________________________________________
conv1d_59 (Conv1D)              (None, 256, 32)      1152        batch_normalization_23[0][0]     
__________________________________________________________________________________________________
max_pooling1d_12 (MaxPooling1D) (None, 256, 36)      0           batch_normalization_23[0][0]     
__________________________________________________________________________________________________
conv1d_60 (Conv1D)              (None, 256, 64)      139264      conv1d_59[0][0]                  
__________________________________________________________________________________________________
conv1d_61 (Conv1D)              (None, 256, 64)      69632       conv1d_59[0][0]                  
__________________________________________________________________________________________________
conv1d_62 (Conv1D)              (None, 256, 64)      34816       conv1d_59[0][0]                  
__________________________________________________________________________________________________
conv1d_63 (Conv1D)              (None, 256, 64)      2304        max_pooling1d_12[0][0]           
__________________________________________________________________________________________________
concatenate_10 (Concatenate)    (None, 256, 256)     0           conv1d_60[0][0]                  
                                                                 conv1d_61[0][0]                  
                                                                 conv1d_62[0][0]                  
                                                                 conv1d_63[0][0]                  
__________________________________________________________________________________________________
batch_normalization_24 (BatchNo (None, 256, 256)     1024        concatenate_10[0][0]             
__________________________________________________________________________________________________
activation_17 (Activation)      (None, 256, 256)     0           batch_normalization_24[0][0]     
__________________________________________________________________________________________________
conv1d_64 (Conv1D)              (None, 256, 32)      8192        activation_17[0][0]              
__________________________________________________________________________________________________
max_pooling1d_13 (MaxPooling1D) (None, 256, 256)     0           activation_17[0][0]              
__________________________________________________________________________________________________
conv1d_65 (Conv1D)              (None, 256, 64)      139264      conv1d_64[0][0]                  
__________________________________________________________________________________________________
conv1d_66 (Conv1D)              (None, 256, 64)      69632       conv1d_64[0][0]                  
__________________________________________________________________________________________________
conv1d_67 (Conv1D)              (None, 256, 64)      34816       conv1d_64[0][0]                  
__________________________________________________________________________________________________
conv1d_68 (Conv1D)              (None, 256, 64)      16384       max_pooling1d_13[0][0]           
__________________________________________________________________________________________________
concatenate_11 (Concatenate)    (None, 256, 256)     0           conv1d_65[0][0]                  
                                                                 conv1d_66[0][0]                  
                                                                 conv1d_67[0][0]                  
                                                                 conv1d_68[0][0]                  
__________________________________________________________________________________________________
batch_normalization_25 (BatchNo (None, 256, 256)     1024        concatenate_11[0][0]             
__________________________________________________________________________________________________
activation_18 (Activation)      (None, 256, 256)     0           batch_normalization_25[0][0]     
__________________________________________________________________________________________________
conv1d_69 (Conv1D)              (None, 256, 32)      8192        activation_18[0][0]              
__________________________________________________________________________________________________
max_pooling1d_14 (MaxPooling1D) (None, 256, 256)     0           activation_18[0][0]              
__________________________________________________________________________________________________
conv1d_70 (Conv1D)              (None, 256, 64)      139264      conv1d_69[0][0]                  
__________________________________________________________________________________________________
conv1d_71 (Conv1D)              (None, 256, 64)      69632       conv1d_69[0][0]                  
__________________________________________________________________________________________________
conv1d_72 (Conv1D)              (None, 256, 64)      34816       conv1d_69[0][0]                  
__________________________________________________________________________________________________
conv1d_73 (Conv1D)              (None, 256, 64)      16384       max_pooling1d_14[0][0]           
__________________________________________________________________________________________________
concatenate_12 (Concatenate)    (None, 256, 256)     0           conv1d_70[0][0]                  
                                                                 conv1d_71[0][0]                  
                                                                 conv1d_72[0][0]                  
                                                                 conv1d_73[0][0]                  
__________________________________________________________________________________________________
conv1d_74 (Conv1D)              (None, 256, 256)     9216        batch_normalization_23[0][0]     
__________________________________________________________________________________________________
batch_normalization_26 (BatchNo (None, 256, 256)     1024        concatenate_12[0][0]             
__________________________________________________________________________________________________
batch_normalization_27 (BatchNo (None, 256, 256)     1024        conv1d_74[0][0]                  
__________________________________________________________________________________________________
activation_19 (Activation)      (None, 256, 256)     0           batch_normalization_26[0][0]     
__________________________________________________________________________________________________
add_2 (Add)                     (None, 256, 256)     0           batch_normalization_27[0][0]     
                                                                 activation_19[0][0]              
__________________________________________________________________________________________________
activation_20 (Activation)      (None, 256, 256)     0           add_2[0][0]                      
__________________________________________________________________________________________________
conv1d_75 (Conv1D)              (None, 256, 32)      8192        activation_20[0][0]              
__________________________________________________________________________________________________
max_pooling1d_15 (MaxPooling1D) (None, 256, 256)     0           activation_20[0][0]              
__________________________________________________________________________________________________
conv1d_76 (Conv1D)              (None, 256, 64)      139264      conv1d_75[0][0]                  
__________________________________________________________________________________________________
conv1d_77 (Conv1D)              (None, 256, 64)      69632       conv1d_75[0][0]                  
__________________________________________________________________________________________________
conv1d_78 (Conv1D)              (None, 256, 64)      34816       conv1d_75[0][0]                  
__________________________________________________________________________________________________
conv1d_79 (Conv1D)              (None, 256, 64)      16384       max_pooling1d_15[0][0]           
__________________________________________________________________________________________________
concatenate_13 (Concatenate)    (None, 256, 256)     0           conv1d_76[0][0]                  
                                                                 conv1d_77[0][0]                  
                                                                 conv1d_78[0][0]                  
                                                                 conv1d_79[0][0]                  
__________________________________________________________________________________________________
batch_normalization_28 (BatchNo (None, 256, 256)     1024        concatenate_13[0][0]             
__________________________________________________________________________________________________
activation_21 (Activation)      (None, 256, 256)     0           batch_normalization_28[0][0]     
__________________________________________________________________________________________________
conv1d_80 (Conv1D)              (None, 256, 32)      8192        activation_21[0][0]              
__________________________________________________________________________________________________
max_pooling1d_16 (MaxPooling1D) (None, 256, 256)     0           activation_21[0][0]              
__________________________________________________________________________________________________
conv1d_81 (Conv1D)              (None, 256, 64)      139264      conv1d_80[0][0]                  
__________________________________________________________________________________________________
conv1d_82 (Conv1D)              (None, 256, 64)      69632       conv1d_80[0][0]                  
__________________________________________________________________________________________________
conv1d_83 (Conv1D)              (None, 256, 64)      34816       conv1d_80[0][0]                  
__________________________________________________________________________________________________
conv1d_84 (Conv1D)              (None, 256, 64)      16384       max_pooling1d_16[0][0]           
__________________________________________________________________________________________________
concatenate_14 (Concatenate)    (None, 256, 256)     0           conv1d_81[0][0]                  
                                                                 conv1d_82[0][0]                  
                                                                 conv1d_83[0][0]                  
                                                                 conv1d_84[0][0]                  
__________________________________________________________________________________________________
batch_normalization_29 (BatchNo (None, 256, 256)     1024        concatenate_14[0][0]             
__________________________________________________________________________________________________
activation_22 (Activation)      (None, 256, 256)     0           batch_normalization_29[0][0]     
__________________________________________________________________________________________________
global_average_pooling1d_2 (Glo (None, 256)          0           activation_22[0][0]              
__________________________________________________________________________________________________
dense_11 (Dense)                (None, 11)           2827        global_average_pooling1d_2[0][0] 
==================================================================================================
Total params: 1,338,651
Trainable params: 1,335,507
Non-trainable params: 3,144
__________________________________________________________________________________________________

+++Hyperparameters+++
Number of Epochs: 350
Batch Size: 64
Learning rate: 0.0005
…
