…
171  0.033897  0.996903  1.233457      0.829746  0.00032
172  0.033447  0.996340  1.231503      0.824853  0.00032
173  0.033008  0.996809  1.182030      0.838063  0.00032
174  0.033922  0.996059  1.201690      0.832192  0.00032
175  0.034186  0.995777  1.120010      0.846869  0.00032
176  0.034169  0.996059  1.143932      0.830724  0.00032
177  0.032890  0.996340  1.109749      0.839041  0.00032

Model: "sequential"
_________________________________________________________________
Layer (type)                 Output Shape              Param #   
=================================================================
batch_normalization (BatchNo (None, 256, 36)           144       
_________________________________________________________________
preprocess (Dense)           (None, 256, 100)          3700      
_________________________________________________________________
lstm (LSTM)                  (None, 256, 128)          117248    
_________________________________________________________________
dropout (Dropout)            (None, 256, 128)          0         
_________________________________________________________________
lstm_1 (LSTM)                (None, 128)               131584    
_________________________________________________________________
dense (Dense)                (None, 100)               12900     
_________________________________________________________________
output (Dense)               (None, 11)                1111      
=================================================================
Total params: 266,687
Trainable params: 266,615
Non-trainable params: 72
_________________________________________________________________

+++Hyperparameters+++
Number of Epochs: 350
Batch Size: 64
N hidden: 128
Learning rate: 0.0005
Regularization rate: 9.3e-05
Depth: 4


Test Accuracy: 87.95865774154663
Test Loss: 0.4658333361148834
…
349  0.035278  0.996622  0.562054      0.873777  0.000100

Model: "model"
__________________________________________________________________________________________________
Layer (type)                    Output Shape         Param #     Connected to                     
==================================================================================================
input_1 (InputLayer)            [(None, 256, 36)]    0                                            
__________________________________________________________________________________________________
batch_normalization_2 (BatchNor (None, 256, 36)      144         input_1[0][0]                    
__________________________________________________________________________________________________
conv1d (Conv1D)                 (None, 256, 32)      1152        batch_normalization_2[0][0]      
__________________________________________________________________________________________________
max_pooling1d (MaxPooling1D)    (None, 256, 36)      0           batch_normalization_2[0][0]      
__________________________________________________________________________________________________
conv1d_1 (Conv1D)               (None, 256, 64)      139264      conv1d[0][0]                     
__________________________________________________________________________________________________
conv1d_2 (Conv1D)               (None, 256, 64)      69632       conv1d[0][0]                     
__________________________________________________________________________________________________
conv1d_3 (Conv1D)               (None, 256, 64)      34816       conv1d[0][0]                     
__________________________________________________________________________________________________
conv1d_4 (Conv1D)               (None, 256, 64)      2304        max_pooling1d[0][0]              
__________________________________________________________________________________________________
concatenate (Concatenate)       (None, 256, 256)     0           conv1d_1[0][0]                   
                                                                 conv1d_2[0][0]                   
                                                                 conv1d_3[0][0]                   
                                                                 conv1d_4[0][0]                   
__________________________________________________________________________________________________
batch_normalization_3 (BatchNor (None, 256, 256)     1024        concatenate[0][0]                
__________________________________________________________________________________________________
activation (Activation)         (None, 256, 256)     0           batch_normalization_3[0][0]      
__________________________________________________________________________________________________
conv1d_5 (Conv1D)               (None, 256, 32)      8192        activation[0][0]                 
__________________________________________________________________________________________________
max_pooling1d_1 (MaxPooling1D)  (None, 256, 256)     0           activation[0][0]                 
__________________________________________________________________________________________________
conv1d_6 (Conv1D)               (None, 256, 64)      139264      conv1d_5[0][0]                   
__________________________________________________________________________________________________
conv1d_7 (Conv1D)               (None, 256, 64)      69632       conv1d_5[0][0]                   
__________________________________________________________________________________________________
conv1d_8 (Conv1D)               (None, 256, 64)      34816       conv1d_5[0][0]                   
__________________________________________________________________________________________________
conv1d_9 (Conv1D)               (None, 256, 64)      16384       max_pooling1d_1[0][0]            
__________________________________________________________________________________________________
concatenate_1 (Concatenate)     (None, 256, 256)     0           conv1d_6[0][0]                   
                                                                 conv1d_7[0][0]                   
                                                                 conv1d_8[0][0]                   
                                                                 conv1d_9[0][0]                   
__________________________________________________________________________________________________
batch_normalization_4 (BatchNor (None, 256, 256)     1024        concatenate_1[0][0]              
__________________________________________________________________________________________________
activation_1 (Activation)       (None, 256, 256)     0           batch_normalization_4[0][0]      
__________________________________________________________________________________________________
conv1d_10 (Conv1D)              (None, 256, 32)      8192        activation_1[0][0]               
__________________________________________________________________________________________________
max_pooling1d_2 (MaxPooling1D)  (None, 256, 256)     0           activation_1[0][0]               
__________________________________________________________________________________________________
conv1d_11 (Conv1D)              (None, 256, 64)      139264      conv1d_10[0][0]                  
__________________________________________________________________________________________________
conv1d_12 (Conv1D)              (None, 256, 64)      69632       conv1d_10[0][0]                  
__________________________________________________________________________________________________
conv1d_13 (Conv1D)              (None, 256, 64)      34816       conv1d_10[0][0]                  
__________________________________________________________________________________________________
conv1d_14 (Conv1D)              (None, 256, 64)      16384       max_pooling1d_2[0][0]            
__________________________________________________________________________________________________
concatenate_2 (Concatenate)     (None, 256, 256)     0           conv1d_11[0][0]                  
                                                                 conv1d_12[0][0]                  
                                                                 conv1d_13[0][0]                  
                                                                 conv1d_14[0][0]                  
__________________________________________________________________________________________________
conv1d_15 (Conv1D)              (None, 256, 256)     9216        batch_normalization_2[0][0]      
__________________________________________________________________________________________________
batch_normalization_5 (BatchNor (None, 256, 256)     1024        concatenate_2[0][0]              
__________________________________________________________________________________________________
batch_normalization_6 (BatchNor (None, 256, 256)     1024        conv1d_15[0][0]                  
__________________________________________________________________________________________________
activation_2 (Activation)       (None, 256, 256)     0           batch_normalization_5[0][0]      
__________________________________________________________________________________________________
add (Add)                       (None, 256, 256)     0           batch_normalization_6[0][0]      
                                                                 activation_2[0][0]               
__________________________________________________________________________________________________
activation_3 (Activation)       (None, 256, 256)     0           add[0][0]                        
__________________________________________________________________________________________________
conv1d_16 (Conv1D)              (None, 256, 32)      8192        activation_3[0][0]               
__________________________________________________________________________________________________
max_pooling1d_3 (MaxPooling1D)  (None, 256, 256)     0           activation_3[0][0]               
__________________________________________________________________________________________________
conv1d_17 (Conv1D)              (None, 256, 64)      139264      conv1d_16[0][0]                  
__________________________________________________________________________________________________
conv1d_18 (Conv1D)              (None, 256, 64)      69632       conv1d_16[0][0]                  
__________________________________________________________________________________________________
conv1d_19 (Conv1D)              (None, 256, 64)      34816       conv1d_16[0][0]                  
__________________________________________________________________________________________________
conv1d_20 (Conv1D)              (None, 256, 64)      16384       max_pooling1d_3[0][0]            
__________________________________________________________________________________________________
concatenate_3 (Concatenate)     (None, 256, 256)     0           conv1d_17[0][0]                  
                                                                 conv1d_18[0][0]                  
                                                                 conv1d_19[0][0]                  
                                                                 conv1d_20[0][0]                  
__________________________________________________________________________________________________
batch_normalization_7 (BatchNor (None, 256, 256)     1024        concatenate_3[0][0]              
__________________________________________________________________________________________________
activation_4 (Activation)       (None, 256, 256)     0           batch_normalization_7[0][0]      
__________________________________________________________________________________________________
conv1d_21 (Conv1D)              (None, 256, 32)      8192        activation_4[0][0]               
__________________________________________________________________________________________________
max_pooling1d_4 (MaxPooling1D)  (None, 256, 256)     0           activation_4[0][0]               
__________________________________________________________________________________________________
conv1d_22 (Conv1D)              (None, 256, 64)      139264      conv1d_21[0][0]                  
__________________________________________________________________________________________________
conv1d_23 (Conv1D)              (None, 256, 64)      69632       conv1d_21[0][0]                  
__________________________________________________________________________________________________
conv1d_24 (Conv1D)              (None, 256, 64)      34816       conv1d_21[0][0]                  
__________________________________________________________________________________________________
conv1d_25 (Conv1D)              (None, 256, 64)      16384       max_pooling1d_4[0][0]            
__________________________________________________________________________________________________
concatenate_4 (Concatenate)     (None, 256, 256)     0           conv1d_22[0][0]                  
                                                                 conv1d_23[0][0]                  
                                                                 conv1d_24[0][0]                  
                                                                 conv1d_25[0][0]                  
__________________________________________________________________________________________________
batch_normalization_8 (BatchNor (None, 256, 256)     1024        concatenate_4[0][0]              
__________________________________________________________________________________________________
activation_5 (Activation)       (None, 256, 256)     0           batch_normalization_8[0][0]      
__________________________________________________________________________________________________
global_average_pooling1d (Globa (None, 256)          0           activation_5[0][0]               
__________________________________________________________________________________________________
dense_3 (Dense)                 (None, 11)           2827        global_average_pooling1d[0][0]   
==================================================================================================
Total params: 1,338,651
Trainable params: 1,335,507
Non-trainable params: 3,144
__________________________________________________________________________________________________

+++Hyperparameters+++
Number of Epochs: 350
Batch Size: 64
Learning rate: 0.0005
…
