…
311  0.013653  0.999625  0.991227      0.829746  0.000100
312  0.014521  0.999437  0.867531      0.845890  0.000100
313  0.013730  0.999812  0.901247      0.853718  0.000100
314  0.014045  0.999812  0.872636      0.849804  0.000100
315  0.012943  1.000000  0.906824      0.843444  0.000100
316  0.013699  0.999718  0.960001      0.844423  0.000100
317  0.013624  0.999812  0.920776      0.841977  0.000100

Model: "sequential_2"
_________________________________________________________________
Layer (type)                 Output Shape              Param #   
=================================================================
batch_normalization_9 (Batch (None, 256, 36)           144       
_________________________________________________________________
conv1d_26 (Conv1D)           (None, 256, 32)           3488      
_________________________________________________________________
batch_normalization_10 (Batc (None, 256, 32)           128       
_________________________________________________________________
activation_6 (Activation)    (None, 256, 32)           0         
_________________________________________________________________
conv1d_27 (Conv1D)           (None, 256, 64)           6208      
_________________________________________________________________
batch_normalization_11 (Batc (None, 256, 64)           256       
_________________________________________________________________
activation_7 (Activation)    (None, 256, 64)           0         
_________________________________________________________________
conv1d_28 (Conv1D)           (None, 256, 32)           6176      
_________________________________________________________________
batch_normalization_12 (Batc (None, 256, 32)           128       
_________________________________________________________________
activation_8 (Activation)    (None, 256, 32)           0         
_________________________________________________________________
flatten (Flatten)            (None, 8192)              0         
_________________________________________________________________
dense_4 (Dense)              (None, 100)               819300    
_________________________________________________________________
activation_9 (Activation)    (None, 100)               0         
_________________________________________________________________
dense_5 (Dense)              (None, 11)                1111      
_________________________________________________________________
batch_normalization_13 (Batc (None, 11)                44        
_________________________________________________________________
activation_10 (Activation)   (None, 11)                0         
=================================================================
Total params: 836,983
Trainable params: 836,633
Non-trainable params: 350
_________________________________________________________________

+++Hyperparameters+++
Number of Epochs: 350
Batch Size: 64
Filters: [32, 64, 32]
Fc hidden nodes: 100
Learning rate: 0.0005
Regularization rate: 9.3e-05


Test Accuracy: 88.32041621208191
…
298  0.005468  0.999437  0.789092      0.876223  0.000100
299  0.005613  0.999531  0.793006      0.874266  0.000100
300  0.005225  0.999718  0.796263      0.874755  0.000100
301  0.006112  0.999437  0.809304      0.874266  0.000100
302  0.006041  0.999625  0.814330      0.872309  0.000100
303  0.005450  0.999531  0.812879      0.873288  0.000100
304  0.005501  0.999249  0.843838      0.867906  0.000100

Model: "sequential_3"
_________________________________________________________________
Layer (type)                 Output Shape              Param #   
=================================================================
reshape (Reshape)            (None, 4, 64, 36)         0         
_________________________________________________________________
batch_normalization_14 (Batc (None, 4, 64, 36)         144       
_________________________________________________________________
time_distributed (TimeDistri (None, 4, 64, 32)         3488      
_________________________________________________________________
time_distributed_1 (TimeDist (None, 4, 60, 64)         10304     
_________________________________________________________________
time_distributed_2 (TimeDist (None, 4, 30, 64)         0         
_________________________________________________________________
time_distributed_3 (TimeDist (None, 4, 26, 64)         20544     
_________________________________________________________________
time_distributed_4 (TimeDist (None, 4, 24, 32)         6176      
_________________________________________________________________
time_distributed_5 (TimeDist (None, 4, 12, 32)         0         
_________________________________________________________________
time_distributed_6 (TimeDist (None, 4, 384)            0         
_________________________________________________________________
lstm_3 (LSTM)                (None, 4, 512)            1837056   
_________________________________________________________________
lstm_4 (LSTM)                (None, 512)               2099200   
_________________________________________________________________
dropout_1 (Dropout)          (None, 512)               0         
_________________________________________________________________
dense_6 (Dense)              (None, 100)               51300     
_________________________________________________________________
dense_7 (Dense)              (None, 11)                1111      
=================================================================
Total params: 4,029,323
Trainable params: 4,029,251
Non-trainable params: 72
_________________________________________________________________

+++Hyperparameters+++
Number of Epochs: 350
Batch Size: 64
N hidden: 512
N steps: 4
Length: 64
N signals: 36
Learning rate: 0.0005
Cnn depth: 3
Lstm depth: 2
Regularization rate: 9.3e-05
…
299  0.020032  0.994651  1.573653      0.774462  0.000100
300  0.021664  0.994745  1.642326      0.763699  0.000100
301  0.021528  0.994182  1.593649      0.769569  0.000100
302  0.019098  0.995402  1.598012      0.768102  0.000100
303  0.020893  0.995495  1.693585      0.763209  0.000100
304  0.018106  0.996059  1.636178      0.764188  0.000100
305  0.020486  0.994463  1.633017      0.763699  0.000100

Model: "sequential_4"
_________________________________________________________________
Layer (type)                 Output Shape              Param #   
=================================================================
batch_normalization_15 (Batc (None, 256, 36)           144       
_________________________________________________________________
lstm_5 (LSTM)                (None, 128)               84480     
_________________________________________________________________
dropout_2 (Dropout)          (None, 128)               0         
_________________________________________________________________
dense_8 (Dense)              (None, 100)               12900     
_________________________________________________________________
dense_9 (Dense)              (None, 11)                1111      
=================================================================
Total params: 98,635
Trainable params: 98,563
Non-trainable params: 72
_________________________________________________________________

+++Hyperparameters+++
Number of Epochs: 350
Batch Size: 64
N hidden: 128
Learning rate: 0.0005
Regularization rate: 9.3e-05


Test Accuracy: 87.44186162948608
Test Loss: 0.45822447538375854
…
349  0.029236  0.997372  0.543319      0.871331  0.000100

Model: "model_1"
__________________________________________________________________________________________________
Layer (type)                    Output Shape         Param #     Connected to                     
==================================================================================================
input_2 (InputLayer)            [(None, 256, 36)]    0                                            
__________________________________________________________________________________________________
batch_normalization_16 (BatchNo (None, 256, 36)      144         input_2[0][0]                    
__________________________________________________________________________________________________
conv1d_33 (Conv1D)              (None, 256, 32)      1152        batch_normalization_16[0][0]     
__________________________________________________________________________________________________
max_pooling1d_7 (MaxPooling1D)  (None, 256, 36)      0           batch_normalization_16[0][0]     
__________________________________________________________________________________________________
conv1d_34 (Conv1D)              (None, 256, 64)      139264      conv1d_33[0][0]                  
__________________________________________________________________________________________________
conv1d_35 (Conv1D)              (None, 256, 64)      69632       conv1d_33[0][0]                  
__________________________________________________________________________________________________
conv1d_36 (Conv1D)              (None, 256, 64)      34816       conv1d_33[0][0]                  
__________________________________________________________________________________________________
conv1d_37 (Conv1D)              (None, 256, 64)      2304        max_pooling1d_7[0][0]            
__________________________________________________________________________________________________
concatenate_5 (Concatenate)     (None, 256, 256)     0           conv1d_34[0][0]                  
                                                                 conv1d_35[0][0]                  
                                                                 conv1d_36[0][0]                  
                                                                 conv1d_37[0][0]                  
__________________________________________________________________________________________________
batch_normalization_17 (BatchNo (None, 256, 256)     1024        concatenate_5[0][0]              
__________________________________________________________________________________________________
activation_11 (Activation)      (None, 256, 256)     0           batch_normalization_17[0][0]     
__________________________________________________________________________________________________
conv1d_38 (Conv1D)              (None, 256, 32)      8192        activation_11[0][0]              
__________________________________________________________________________________________________
max_pooling1d_8 (MaxPooling1D)  (None, 256, 256)     0           activation_11[0][0]              
__________________________________________________________________________________________________
conv1d_39 (Conv1D)              (None, 256, 64)      139264      conv1d_38[0][0]                  
__________________________________________________________________________________________________
conv1d_40 (Conv1D)              (None, 256, 64)      69632       conv1d_38[0][0]                  
__________________________________________________________________________________________________
conv1d_41 (Conv1D)              (None, 256, 64)      34816       conv1d_38[0][0]                  
__________________________________________________________________________________________________
conv1d_42 (Conv1D)              (None, 256, 64)      16384       max_pooling1d_8[0][0]            
__________________________________________________________________________________________________
concatenate_6 (Concatenate)     (None, 256, 256)     0           conv1d_39[0][0]                  
                                                                 conv1d_40[0][0]                  
                                                                 conv1d_41[0][0]                  
                                                                 conv1d_42[0][0]                  
__________________________________________________________________________________________________
batch_normalization_18 (BatchNo (None, 256, 256)     1024        concatenate_6[0][0]              
__________________________________________________________________________________________________
activation_12 (Activation)      (None, 256, 256)     0           batch_normalization_18[0][0]     
__________________________________________________________________________________________________
conv1d_43 (Conv1D)              (None, 256, 32)      8192        activation_12[0][0]              
__________________________________________________________________________________________________
max_pooling1d_9 (MaxPooling1D)  (None, 256, 256)     0           activation_12[0][0]              
__________________________________________________________________________________________________
conv1d_44 (Conv1D)              (None, 256, 64)      139264      conv1d_43[0][0]                  
__________________________________________________________________________________________________
conv1d_45 (Conv1D)              (None, 256, 64)      69632       conv1d_43[0][0]                  
__________________________________________________________________________________________________
conv1d_46 (Conv1D)              (None, 256, 64)      34816       conv1d_43[0][0]                  
__________________________________________________________________________________________________
conv1d_47 (Conv1D)              (None, 256, 64)      16384       max_pooling1d_9[0][0]            
__________________________________________________________________________________________________
concatenate_7 (Concatenate)     (None, 256, 256)     0           conv1d_44[0][0]                  
                                                                 conv1d_45[0][0]                  
                                                                 conv1d_46[0][0]                  
                                                                 conv1d_47[0][0]                  
__________________________________________________________________________________________________
conv1d_48 (Conv1D)              (None, 256, 256)     9216        batch_normalization_16[0][0]     
__________________________________________________________________________________________________
batch_normalization_19 (BatchNo (None, 256, 256)     1024        concatenate_7[0][0]              
__________________________________________________________________________________________________
batch_normalization_20 (BatchNo (None, 256, 256)     1024        conv1d_48[0][0]                  
__________________________________________________________________________________________________
activation_13 (Activation)      (None, 256, 256)     0           batch_normalization_19[0][0]     
__________________________________________________________________________________________________
add_1 (Add)                     (None, 256, 256)     0           batch_normalization_20[0][0]     
                                                                 activation_13[0][0]              
__________________________________________________________________________________________________
activation_14 (Activation)      (None, 256, 256)     0           add_1[0][0]                      
__________________________________________________________________________________________________
conv1d_49 (Conv1D)              (None, 256, 32)      8192        activation_14[0][0]              
__________________________________________________________________________________________________
max_pooling1d_10 (MaxPooling1D) (None, 256, 256)     0           activation_14[0][0]              
__________________________________________________________________________________________________
conv1d_50 (Conv1D)              (None, 256, 64)      139264      conv1d_49[0][0]                  
__________________________________________________________________________________________________
conv1d_51 (Conv1D)              (None, 256, 64)      69632       conv1d_49[0][0]                  
__________________________________________________________________________________________________
conv1d_52 (Conv1D)              (None, 256, 64)      34816       conv1d_49[0][0]                  
__________________________________________________________________________________________________
conv1d_53 (Conv1D)              (None, 256, 64)      16384       max_pooling1d_10[0][0]           
__________________________________________________________________________________________________
concatenate_8 (Concatenate)     (None, 256, 256)     0           conv1d_50[0][0]                  
                                                                 conv1d_51[0][0]                  
                                                                 conv1d_52[0][0]                  
                                                                 conv1d_53[0][0]                  
__________________________________________________________________________________________________
batch_normalization_21 (BatchNo (None, 256, 256)     1024        concatenate_8[0][0]              
__________________________________________________________________________________________________
activation_15 (Activation)      (None, 256, 256)     0           batch_normalization_21[0][0]     
__________________________________________________________________________________________________
conv1d_54 (Conv1D)              (None, 256, 32)      8192        activation_15[0][0]              
__________________________________________________________________________________________________
max_pooling1d_11 (MaxPooling1D) (None, 256, 256)     0           activation_15[0][0]              
__________________________________________________________________________________________________
conv1d_55 (Conv1D)              (None, 256, 64)      139264      conv1d_54[0][0]                  
__________________________________________________________________________________________________
conv1d_56 (Conv1D)              (None, 256, 64)      69632       conv1d_54[0][0]                  
__________________________________________________________________________________________________
conv1d_57 (Conv1D)              (None, 256, 64)      34816       conv1d_54[0][0]                  
__________________________________________________________________________________________________
conv1d_58 (Conv1D)              (None, 256, 64)      16384       max_pooling1d_11[0][0]           
__________________________________________________________________________________________________
concatenate_9 (Concatenate)     (None, 256, 256)     0           conv1d_55[0][0]                  
                                                                 conv1d_56[0][0]                  
                                                                 conv1d_57[0][0]                  
                                                                 conv1d_58[0][0]                  
__________________________________________________________________________________________________
batch_normalization_22 (BatchNo (None, 256, 256)     1024        concatenate_9[0][0]              
__________________________________________________________________________________________________
activation_16 (Activation)      (None, 256, 256)     0           batch_normalization_22[0][0]     
__________________________________________________________________________________________________
global_average_pooling1d_1 (Glo (None, 256)          0           activation_16[0][0]              
__________________________________________________________________________________________________
dense_10 (Dense)                (None, 11)           2827        global_average_pooling1d_1[0][0] 
==================================================================================================
Total params: 1,338,651
Trainable params: 1,335,507
Non-trainable params: 3,144
__________________________________________________________________________________________________

+++Hyperparameters+++
Number of Epochs: 350
Batch Size: 64
Learning rate: 0.0005
…
