…
59  0.070492  0.985267  0.982246      0.841977  0.0005
60  0.069221  0.984985  1.023042      0.833659  0.0005
61  0.138737  0.966122  0.877230      0.823875  0.0005
62  0.138367  0.965184  1.106524      0.784736  0.0005
63  0.124687  0.970064  0.877417      0.851761  0.0005
64  0.108492  0.973255  0.907656      0.853718  0.0005
65  0.089248  0.977947  0.881295      0.835616  0.0005

Model: "sequential"
_________________________________________________________________
Layer (type)                 Output Shape              Param #   
=================================================================
batch_normalization (BatchNo (None, 256, 36)           144       
_________________________________________________________________
preprocess (Dense)           (None, 256, 100)          3700      
_________________________________________________________________
lstm (LSTM)                  (None, 256, 128)          117248    
_________________________________________________________________
dropout (Dropout)            (None, 256, 128)          0         
_________________________________________________________________
lstm_1 (LSTM)                (None, 128)               131584    
_________________________________________________________________
dense (Dense)                (None, 100)               12900     
_________________________________________________________________
output (Dense)               (None, 11)                1111      
=================================================================
Total params: 266,687
Trainable params: 266,615
Non-trainable params: 72
_________________________________________________________________

+++Hyperparameters+++
Number of Epochs: 350
Batch Size: 64
N hidden: 128
Learning rate: 0.0005
Regularization rate: 9.3e-05
Depth: 4


Test Accuracy: 88.42377066612244
Test Loss: 0.46973472833633423
…
