…
349  0.028591  0.997935  0.585656      0.886008  0.000100

Model: "model"
__________________________________________________________________________________________________
Layer (type)                    Output Shape         Param #     Connected to                     
==================================================================================================
input_1 (InputLayer)            [(None, 256, 36)]    0                                            
__________________________________________________________________________________________________
batch_normalization (BatchNorma (None, 256, 36)      144         input_1[0][0]                    
__________________________________________________________________________________________________
conv1d (Conv1D)                 (None, 256, 32)      1152        batch_normalization[0][0]        
__________________________________________________________________________________________________
max_pooling1d (MaxPooling1D)    (None, 256, 36)      0           batch_normalization[0][0]        
__________________________________________________________________________________________________
conv1d_1 (Conv1D)               (None, 256, 64)      139264      conv1d[0][0]                     
__________________________________________________________________________________________________
conv1d_2 (Conv1D)               (None, 256, 64)      69632       conv1d[0][0]                     
__________________________________________________________________________________________________
conv1d_3 (Conv1D)               (None, 256, 64)      34816       conv1d[0][0]                     
__________________________________________________________________________________________________
conv1d_4 (Conv1D)               (None, 256, 64)      2304        max_pooling1d[0][0]              
__________________________________________________________________________________________________
concatenate (Concatenate)       (None, 256, 256)     0           conv1d_1[0][0]                   
                                                                 conv1d_2[0][0]                   
                                                                 conv1d_3[0][0]                   
                                                                 conv1d_4[0][0]                   
__________________________________________________________________________________________________
batch_normalization_1 (BatchNor (None, 256, 256)     1024        concatenate[0][0]                
__________________________________________________________________________________________________
activation (Activation)         (None, 256, 256)     0           batch_normalization_1[0][0]      
__________________________________________________________________________________________________
conv1d_5 (Conv1D)               (None, 256, 32)      8192        activation[0][0]                 
__________________________________________________________________________________________________
max_pooling1d_1 (MaxPooling1D)  (None, 256, 256)     0           activation[0][0]                 
__________________________________________________________________________________________________
conv1d_6 (Conv1D)               (None, 256, 64)      139264      conv1d_5[0][0]                   
__________________________________________________________________________________________________
conv1d_7 (Conv1D)               (None, 256, 64)      69632       conv1d_5[0][0]                   
__________________________________________________________________________________________________
conv1d_8 (Conv1D)               (None, 256, 64)      34816       conv1d_5[0][0]                   
__________________________________________________________________________________________________
conv1d_9 (Conv1D)               (None, 256, 64)      16384       max_pooling1d_1[0][0]            
__________________________________________________________________________________________________
concatenate_1 (Concatenate)     (None, 256, 256)     0           conv1d_6[0][0]                   
                                                                 conv1d_7[0][0]                   
                                                                 conv1d_8[0][0]                   
                                                                 conv1d_9[0][0]                   
__________________________________________________________________________________________________
batch_normalization_2 (BatchNor (None, 256, 256)     1024        concatenate_1[0][0]              
__________________________________________________________________________________________________
activation_1 (Activation)       (None, 256, 256)     0           batch_normalization_2[0][0]      
__________________________________________________________________________________________________
conv1d_10 (Conv1D)              (None, 256, 32)      8192        activation_1[0][0]               
__________________________________________________________________________________________________
max_pooling1d_2 (MaxPooling1D)  (None, 256, 256)     0           activation_1[0][0]               
__________________________________________________________________________________________________
conv1d_11 (Conv1D)              (None, 256, 64)      139264      conv1d_10[0][0]                  
__________________________________________________________________________________________________
conv1d_12 (Conv1D)              (None, 256, 64)      69632       conv1d_10[0][0]                  
__________________________________________________________________________________________________
conv1d_13 (Conv1D)              (None, 256, 64)      34816       conv1d_10[0][0]                  
__________________________________________________________________________________________________
conv1d_14 (Conv1D)              (None, 256, 64)      16384       max_pooling1d_2[0][0]            
__________________________________________________________________________________________________
concatenate_2 (Concatenate)     (None, 256, 256)     0           conv1d_11[0][0]                  
                                                                 conv1d_12[0][0]                  
                                                                 conv1d_13[0][0]                  
                                                                 conv1d_14[0][0]                  
__________________________________________________________________________________________________
conv1d_15 (Conv1D)              (None, 256, 256)     9216        batch_normalization[0][0]        
__________________________________________________________________________________________________
batch_normalization_3 (BatchNor (None, 256, 256)     1024        concatenate_2[0][0]              
__________________________________________________________________________________________________
batch_normalization_4 (BatchNor (None, 256, 256)     1024        conv1d_15[0][0]                  
__________________________________________________________________________________________________
activation_2 (Activation)       (None, 256, 256)     0           batch_normalization_3[0][0]      
__________________________________________________________________________________________________
add (Add)                       (None, 256, 256)     0           batch_normalization_4[0][0]      
                                                                 activation_2[0][0]               
__________________________________________________________________________________________________
activation_3 (Activation)       (None, 256, 256)     0           add[0][0]                        
__________________________________________________________________________________________________
conv1d_16 (Conv1D)              (None, 256, 32)      8192        activation_3[0][0]               
__________________________________________________________________________________________________
max_pooling1d_3 (MaxPooling1D)  (None, 256, 256)     0           activation_3[0][0]               
__________________________________________________________________________________________________
conv1d_17 (Conv1D)              (None, 256, 64)      139264      conv1d_16[0][0]                  
__________________________________________________________________________________________________
conv1d_18 (Conv1D)              (None, 256, 64)      69632       conv1d_16[0][0]                  
__________________________________________________________________________________________________
conv1d_19 (Conv1D)              (None, 256, 64)      34816       conv1d_16[0][0]                  
__________________________________________________________________________________________________
conv1d_20 (Conv1D)              (None, 256, 64)      16384       max_pooling1d_3[0][0]            
__________________________________________________________________________________________________
concatenate_3 (Concatenate)     (None, 256, 256)     0           conv1d_17[0][0]                  
                                                                 conv1d_18[0][0]                  
                                                                 conv1d_19[0][0]                  
                                                                 conv1d_20[0][0]                  
__________________________________________________________________________________________________
batch_normalization_5 (BatchNor (None, 256, 256)     1024        concatenate_3[0][0]              
__________________________________________________________________________________________________
activation_4 (Activation)       (None, 256, 256)     0           batch_normalization_5[0][0]      
__________________________________________________________________________________________________
conv1d_21 (Conv1D)              (None, 256, 32)      8192        activation_4[0][0]               
__________________________________________________________________________________________________
max_pooling1d_4 (MaxPooling1D)  (None, 256, 256)     0           activation_4[0][0]               
__________________________________________________________________________________________________
conv1d_22 (Conv1D)              (None, 256, 64)      139264      conv1d_21[0][0]                  
__________________________________________________________________________________________________
conv1d_23 (Conv1D)              (None, 256, 64)      69632       conv1d_21[0][0]                  
__________________________________________________________________________________________________
conv1d_24 (Conv1D)              (None, 256, 64)      34816       conv1d_21[0][0]                  
__________________________________________________________________________________________________
conv1d_25 (Conv1D)              (None, 256, 64)      16384       max_pooling1d_4[0][0]            
__________________________________________________________________________________________________
concatenate_4 (Concatenate)     (None, 256, 256)     0           conv1d_22[0][0]                  
                                                                 conv1d_23[0][0]                  
                                                                 conv1d_24[0][0]                  
                                                                 conv1d_25[0][0]                  
__________________________________________________________________________________________________
batch_normalization_6 (BatchNor (None, 256, 256)     1024        concatenate_4[0][0]              
__________________________________________________________________________________________________
activation_5 (Activation)       (None, 256, 256)     0           batch_normalization_6[0][0]      
__________________________________________________________________________________________________
global_average_pooling1d (Globa (None, 256)          0           activation_5[0][0]               
__________________________________________________________________________________________________
dense (Dense)                   (None, 11)           2827        global_average_pooling1d[0][0]   
==================================================================================================
Total params: 1,338,651
Trainable params: 1,335,507
Non-trainable params: 3,144
__________________________________________________________________________________________________

+++Hyperparameters+++
Number of Epochs: 350
Batch Size: 64
Learning rate: 0.0005
…
65  0.050160  0.995402  0.855261      0.818982  0.0005
66  0.049599  0.994839  1.189143      0.752446  0.0005
67  0.056804  0.993994  0.948360      0.775930  0.0005
68  0.055530  0.993337  0.988737      0.818004  0.0005
69  0.045491  0.997185  1.018648      0.772505  0.0004
70  0.047722  0.995683  0.649152      0.848826  0.0004
71  0.043157  0.996903  0.633329      0.861546  0.0004

Model: "sequential_1"
_________________________________________________________________
Layer (type)                 Output Shape              Param #   
=================================================================
batch_normalization_8 (Batch (None, 256, 36)           144       
_________________________________________________________________
conv1d_26 (Conv1D)           (None, 256, 32)           3488      
_________________________________________________________________
batch_normalization_9 (Batch (None, 256, 32)           128       
_________________________________________________________________
activation_6 (Activation)    (None, 256, 32)           0         
_________________________________________________________________
conv1d_27 (Conv1D)           (None, 256, 64)           6208      
_________________________________________________________________
batch_normalization_10 (Batc (None, 256, 64)           256       
_________________________________________________________________
activation_7 (Activation)    (None, 256, 64)           0         
_________________________________________________________________
conv1d_28 (Conv1D)           (None, 256, 32)           6176      
_________________________________________________________________
batch_normalization_11 (Batc (None, 256, 32)           128       
_________________________________________________________________
activation_8 (Activation)    (None, 256, 32)           0         
_________________________________________________________________
flatten (Flatten)            (None, 8192)              0         
_________________________________________________________________
dense_2 (Dense)              (None, 100)               819300    
_________________________________________________________________
activation_9 (Activation)    (None, 100)               0         
_________________________________________________________________
dense_3 (Dense)              (None, 11)                1111      
_________________________________________________________________
batch_normalization_12 (Batc (None, 11)                44        
_________________________________________________________________
activation_10 (Activation)   (None, 11)                0         
=================================================================
Total params: 836,983
Trainable params: 836,633
Non-trainable params: 350
_________________________________________________________________

+++Hyperparameters+++
Number of Epochs: 350
Batch Size: 64
Filters: [32, 64, 32]
Fc hidden nodes: 100
Learning rate: 0.0005
Regularization rate: 9.3e-05


Test Accuracy: 86.66666746139526
…
67  0.034516  0.993900  0.869610      0.838552  0.0005
68  0.031729  0.994463  0.883432      0.835616  0.0005
69  0.029588  0.995589  0.735584      0.864971  0.0005
70  0.026878  0.996528  0.682627      0.876712  0.0005
71  0.026873  0.995965  0.710524      0.879648  0.0005
72  0.034114  0.993431  0.716891      0.855186  0.0005
73  0.026506  0.996528  0.902320      0.831703  0.0005

Model: "sequential_2"
_________________________________________________________________
Layer (type)                 Output Shape              Param #   
=================================================================
reshape (Reshape)            (None, 4, 64, 36)         0         
_________________________________________________________________
batch_normalization_13 (Batc (None, 4, 64, 36)         144       
_________________________________________________________________
time_distributed (TimeDistri (None, 4, 64, 32)         3488      
_________________________________________________________________
time_distributed_1 (TimeDist (None, 4, 60, 64)         10304     
_________________________________________________________________
time_distributed_2 (TimeDist (None, 4, 30, 64)         0         
_________________________________________________________________
time_distributed_3 (TimeDist (None, 4, 26, 64)         20544     
_________________________________________________________________
time_distributed_4 (TimeDist (None, 4, 24, 32)         6176      
_________________________________________________________________
time_distributed_5 (TimeDist (None, 4, 12, 32)         0         
_________________________________________________________________
time_distributed_6 (TimeDist (None, 4, 384)            0         
_________________________________________________________________
lstm_2 (LSTM)                (None, 4, 512)            1837056   
_________________________________________________________________
lstm_3 (LSTM)                (None, 512)               2099200   
_________________________________________________________________
dropout_1 (Dropout)          (None, 512)               0         
_________________________________________________________________
dense_4 (Dense)              (None, 100)               51300     
_________________________________________________________________
dense_5 (Dense)              (None, 11)                1111      
=================================================================
Total params: 4,029,323
Trainable params: 4,029,251
Non-trainable params: 72
_________________________________________________________________

+++Hyperparameters+++
Number of Epochs: 350
Batch Size: 64
N hidden: 512
N steps: 4
Length: 64
N signals: 36
Learning rate: 0.0005
Cnn depth: 3
Lstm depth: 2
Regularization rate: 9.3e-05
…
59  0.113117  0.968656  0.952121      0.818004  0.00040
60  0.118821  0.965841  1.120553      0.794521  0.00040
61  0.104576  0.969125  1.254266      0.779843  0.00032
62  0.106933  0.970815  1.403133      0.774951  0.00032
63  0.113091  0.967905  1.571253      0.742172  0.00032
64  0.099818  0.972316  1.601560      0.736301  0.00032
65  0.093769  0.974099  1.448036      0.765166  0.00032

Model: "sequential_3"
_________________________________________________________________
Layer (type)                 Output Shape              Param #   
=================================================================
batch_normalization_14 (Batc (None, 256, 36)           144       
_________________________________________________________________
lstm_4 (LSTM)                (None, 128)               84480     
_________________________________________________________________
dropout_2 (Dropout)          (None, 128)               0         
_________________________________________________________________
dense_6 (Dense)              (None, 100)               12900     
_________________________________________________________________
dense_7 (Dense)              (None, 11)                1111      
=================================================================
Total params: 98,635
Trainable params: 98,563
Non-trainable params: 72
_________________________________________________________________

+++Hyperparameters+++
Number of Epochs: 100
Batch Size: 64
N hidden: 128
Learning rate: 0.0005
Regularization rate: 9.3e-05


Test Accuracy: 86.04651093482971
Test Loss: 0.6571468710899353

…
