…
340  0.012952  0.999728  0.293322      0.948537  0.000100
341  0.013647  0.999456  0.257432      0.950555  0.000100
342  0.013400  0.999320  0.236823      0.949546  0.000100
343  0.014938  0.999456  0.288700      0.948537  0.000100
344  0.013338  0.999456  0.273698      0.948537  0.000100
345  0.012661  0.999456  0.251769      0.949546  0.000100
346  0.012133  1.000000  0.248638      0.949546  0.000100

Model: "sequential_2"
_________________________________________________________________
Layer (type)                 Output Shape              Param #   
=================================================================
batch_normalization_9 (Batch (None, 128, 9)            36        
_________________________________________________________________
conv1d_26 (Conv1D)           (None, 128, 32)           896       
_________________________________________________________________
batch_normalization_10 (Batc (None, 128, 32)           128       
_________________________________________________________________
activation_6 (Activation)    (None, 128, 32)           0         
_________________________________________________________________
conv1d_27 (Conv1D)           (None, 128, 64)           6208      
_________________________________________________________________
batch_normalization_11 (Batc (None, 128, 64)           256       
_________________________________________________________________
activation_7 (Activation)    (None, 128, 64)           0         
_________________________________________________________________
conv1d_28 (Conv1D)           (None, 128, 32)           6176      
_________________________________________________________________
batch_normalization_12 (Batc (None, 128, 32)           128       
_________________________________________________________________
activation_8 (Activation)    (None, 128, 32)           0         
_________________________________________________________________
flatten (Flatten)            (None, 4096)              0         
_________________________________________________________________
dense_4 (Dense)              (None, 100)               409700    
_________________________________________________________________
activation_9 (Activation)    (None, 100)               0         
_________________________________________________________________
dense_5 (Dense)              (None, 6)                 606       
_________________________________________________________________
batch_normalization_13 (Batc (None, 6)                 24        
_________________________________________________________________
activation_10 (Activation)   (None, 6)                 0         
=================================================================
Total params: 424,158
Trainable params: 423,872
Non-trainable params: 286
_________________________________________________________________

+++Hyperparameters+++
Number of Epochs: 350
Batch Size: 64
Filters: [32, 64, 32]
Fc hidden nodes: 100
Learning rate: 0.0005
Regularization rate: 9.3e-05


Test Accuracy: 91.66666865348816
…
343  0.005380  0.999184  0.160391      0.976791  0.000100
344  0.007175  0.998776  0.195130      0.972755  0.000100
345  0.005016  0.999184  0.190313      0.974773  0.000100
346  0.004120  0.999728  0.177888      0.975782  0.000100
347  0.004946  0.999456  0.175551      0.975782  0.000100
348  0.005610  0.999184  0.186385      0.975782  0.000100
349  0.003606  0.999864  0.186013      0.974773  0.000100

Model: "sequential_3"
_________________________________________________________________
Layer (type)                 Output Shape              Param #   
=================================================================
reshape (Reshape)            (None, 4, 32, 9)          0         
_________________________________________________________________
batch_normalization_14 (Batc (None, 4, 32, 9)          36        
_________________________________________________________________
time_distributed (TimeDistri (None, 4, 32, 32)         896       
_________________________________________________________________
time_distributed_1 (TimeDist (None, 4, 28, 64)         10304     
_________________________________________________________________
time_distributed_2 (TimeDist (None, 4, 14, 64)         0         
_________________________________________________________________
time_distributed_3 (TimeDist (None, 4, 10, 64)         20544     
_________________________________________________________________
time_distributed_4 (TimeDist (None, 4, 8, 32)          6176      
_________________________________________________________________
time_distributed_5 (TimeDist (None, 4, 4, 32)          0         
_________________________________________________________________
time_distributed_6 (TimeDist (None, 4, 128)            0         
_________________________________________________________________
lstm_3 (LSTM)                (None, 4, 512)            1312768   
_________________________________________________________________
lstm_4 (LSTM)                (None, 512)               2099200   
_________________________________________________________________
dropout_1 (Dropout)          (None, 512)               0         
_________________________________________________________________
dense_6 (Dense)              (None, 100)               51300     
_________________________________________________________________
dense_7 (Dense)              (None, 6)                 606       
=================================================================
Total params: 3,501,830
Trainable params: 3,501,812
Non-trainable params: 18
_________________________________________________________________

+++Hyperparameters+++
Number of Epochs: 350
Batch Size: 64
N hidden: 512
N steps: 4
Length: 32
N signals: 9
Learning rate: 0.0005
Cnn depth: 3
Lstm depth: 2
Regularization rate: 9.3e-05
…
325  0.039123  0.985446  0.146830      0.950555  0.000105
326  0.039777  0.985446  0.097887      0.969728  0.000105
327  0.039706  0.984086  0.127033      0.957619  0.000105
328  0.039947  0.985310  0.136928      0.961655  0.000105
329  0.044946  0.982590  0.142452      0.957619  0.000105
330  0.042574  0.983950  0.130589      0.956609  0.000105
331  0.036718  0.985310  0.116484      0.963673  0.000105

Model: "sequential_4"
_________________________________________________________________
Layer (type)                 Output Shape              Param #   
=================================================================
batch_normalization_15 (Batc (None, 128, 9)            36        
_________________________________________________________________
lstm_5 (LSTM)                (None, 128)               70656     
_________________________________________________________________
dropout_2 (Dropout)          (None, 128)               0         
_________________________________________________________________
dense_8 (Dense)              (None, 100)               12900     
_________________________________________________________________
dense_9 (Dense)              (None, 6)                 606       
=================================================================
Total params: 84,198
Trainable params: 84,180
Non-trainable params: 18
_________________________________________________________________

+++Hyperparameters+++
Number of Epochs: 350
Batch Size: 64
N hidden: 128
Learning rate: 0.0005
Regularization rate: 9.3e-05


Test Accuracy: 90.7975435256958
Test Loss: 0.3296007513999939

…
173  0.077260  0.967764  0.094456      0.970737  0.000105
174  0.083067  0.966132  0.099516      0.967709  0.000105
175  0.080382  0.968036  0.112038      0.963673  0.000105
176  0.076704  0.970484  0.097989      0.970737  0.000105
177  0.077325  0.968852  0.096483      0.971746  0.000105
178  0.081426  0.967084  0.096982      0.963673  0.000105
179  0.082349  0.965724  0.096878      0.965691  0.000105

Model: "sequential"
_________________________________________________________________
Layer (type)                 Output Shape              Param #   
=================================================================
batch_normalization (BatchNo (None, 128, 9)            36        
_________________________________________________________________
preprocess (Dense)           (None, 128, 100)          1000      
_________________________________________________________________
lstm (LSTM)                  (None, 128, 128)          117248    
_________________________________________________________________
dropout (Dropout)            (None, 128, 128)          0         
_________________________________________________________________
lstm_1 (LSTM)                (None, 128)               131584    
_________________________________________________________________
dense (Dense)                (None, 100)               12900     
_________________________________________________________________
output (Dense)               (None, 6)                 606       
=================================================================
Total params: 263,374
Trainable params: 263,356
Non-trainable params: 18
_________________________________________________________________

+++Hyperparameters+++
Number of Epochs: 350
Batch Size: 64
N hidden: 128
Learning rate: 0.0005
Regularization rate: 9.3e-05
Depth: 4


Test Accuracy: 91.8200433254242
Test Loss: 0.39954328536987305
…
349  0.031732  0.994967  0.081422      0.975782  0.000100

Model: "model"
__________________________________________________________________________________________________
Layer (type)                    Output Shape         Param #     Connected to                     
==================================================================================================
input_1 (InputLayer)            [(None, 128, 9)]     0                                            
__________________________________________________________________________________________________
batch_normalization_1 (BatchNor (None, 128, 9)       36          input_1[0][0]                    
__________________________________________________________________________________________________
conv1d (Conv1D)                 (None, 128, 32)      288         batch_normalization_1[0][0]      
__________________________________________________________________________________________________
max_pooling1d (MaxPooling1D)    (None, 128, 9)       0           batch_normalization_1[0][0]      
__________________________________________________________________________________________________
conv1d_1 (Conv1D)               (None, 128, 64)      139264      conv1d[0][0]                     
__________________________________________________________________________________________________
conv1d_2 (Conv1D)               (None, 128, 64)      69632       conv1d[0][0]                     
__________________________________________________________________________________________________
conv1d_3 (Conv1D)               (None, 128, 64)      34816       conv1d[0][0]                     
__________________________________________________________________________________________________
conv1d_4 (Conv1D)               (None, 128, 64)      576         max_pooling1d[0][0]              
__________________________________________________________________________________________________
concatenate (Concatenate)       (None, 128, 256)     0           conv1d_1[0][0]                   
                                                                 conv1d_2[0][0]                   
                                                                 conv1d_3[0][0]                   
                                                                 conv1d_4[0][0]                   
__________________________________________________________________________________________________
batch_normalization_2 (BatchNor (None, 128, 256)     1024        concatenate[0][0]                
__________________________________________________________________________________________________
activation (Activation)         (None, 128, 256)     0           batch_normalization_2[0][0]      
__________________________________________________________________________________________________
conv1d_5 (Conv1D)               (None, 128, 32)      8192        activation[0][0]                 
__________________________________________________________________________________________________
max_pooling1d_1 (MaxPooling1D)  (None, 128, 256)     0           activation[0][0]                 
__________________________________________________________________________________________________
conv1d_6 (Conv1D)               (None, 128, 64)      139264      conv1d_5[0][0]                   
__________________________________________________________________________________________________
conv1d_7 (Conv1D)               (None, 128, 64)      69632       conv1d_5[0][0]                   
__________________________________________________________________________________________________
conv1d_8 (Conv1D)               (None, 128, 64)      34816       conv1d_5[0][0]                   
__________________________________________________________________________________________________
conv1d_9 (Conv1D)               (None, 128, 64)      16384       max_pooling1d_1[0][0]            
__________________________________________________________________________________________________
concatenate_1 (Concatenate)     (None, 128, 256)     0           conv1d_6[0][0]                   
                                                                 conv1d_7[0][0]                   
                                                                 conv1d_8[0][0]                   
                                                                 conv1d_9[0][0]                   
__________________________________________________________________________________________________
batch_normalization_3 (BatchNor (None, 128, 256)     1024        concatenate_1[0][0]              
__________________________________________________________________________________________________
activation_1 (Activation)       (None, 128, 256)     0           batch_normalization_3[0][0]      
__________________________________________________________________________________________________
conv1d_10 (Conv1D)              (None, 128, 32)      8192        activation_1[0][0]               
__________________________________________________________________________________________________
max_pooling1d_2 (MaxPooling1D)  (None, 128, 256)     0           activation_1[0][0]               
__________________________________________________________________________________________________
conv1d_11 (Conv1D)              (None, 128, 64)      139264      conv1d_10[0][0]                  
__________________________________________________________________________________________________
conv1d_12 (Conv1D)              (None, 128, 64)      69632       conv1d_10[0][0]                  
__________________________________________________________________________________________________
conv1d_13 (Conv1D)              (None, 128, 64)      34816       conv1d_10[0][0]                  
__________________________________________________________________________________________________
conv1d_14 (Conv1D)              (None, 128, 64)      16384       max_pooling1d_2[0][0]            
__________________________________________________________________________________________________
concatenate_2 (Concatenate)     (None, 128, 256)     0           conv1d_11[0][0]                  
                                                                 conv1d_12[0][0]                  
                                                                 conv1d_13[0][0]                  
                                                                 conv1d_14[0][0]                  
__________________________________________________________________________________________________
conv1d_15 (Conv1D)              (None, 128, 256)     2304        batch_normalization_1[0][0]      
__________________________________________________________________________________________________
batch_normalization_4 (BatchNor (None, 128, 256)     1024        concatenate_2[0][0]              
__________________________________________________________________________________________________
batch_normalization_5 (BatchNor (None, 128, 256)     1024        conv1d_15[0][0]                  
__________________________________________________________________________________________________
activation_2 (Activation)       (None, 128, 256)     0           batch_normalization_4[0][0]      
__________________________________________________________________________________________________
add (Add)                       (None, 128, 256)     0           batch_normalization_5[0][0]      
                                                                 activation_2[0][0]               
__________________________________________________________________________________________________
activation_3 (Activation)       (None, 128, 256)     0           add[0][0]                        
__________________________________________________________________________________________________
conv1d_16 (Conv1D)              (None, 128, 32)      8192        activation_3[0][0]               
__________________________________________________________________________________________________
max_pooling1d_3 (MaxPooling1D)  (None, 128, 256)     0           activation_3[0][0]               
__________________________________________________________________________________________________
conv1d_17 (Conv1D)              (None, 128, 64)      139264      conv1d_16[0][0]                  
__________________________________________________________________________________________________
conv1d_18 (Conv1D)              (None, 128, 64)      69632       conv1d_16[0][0]                  
__________________________________________________________________________________________________
conv1d_19 (Conv1D)              (None, 128, 64)      34816       conv1d_16[0][0]                  
__________________________________________________________________________________________________
conv1d_20 (Conv1D)              (None, 128, 64)      16384       max_pooling1d_3[0][0]            
__________________________________________________________________________________________________
concatenate_3 (Concatenate)     (None, 128, 256)     0           conv1d_17[0][0]                  
                                                                 conv1d_18[0][0]                  
                                                                 conv1d_19[0][0]                  
                                                                 conv1d_20[0][0]                  
__________________________________________________________________________________________________
batch_normalization_6 (BatchNor (None, 128, 256)     1024        concatenate_3[0][0]              
__________________________________________________________________________________________________
activation_4 (Activation)       (None, 128, 256)     0           batch_normalization_6[0][0]      
__________________________________________________________________________________________________
conv1d_21 (Conv1D)              (None, 128, 32)      8192        activation_4[0][0]               
__________________________________________________________________________________________________
max_pooling1d_4 (MaxPooling1D)  (None, 128, 256)     0           activation_4[0][0]               
__________________________________________________________________________________________________
conv1d_22 (Conv1D)              (None, 128, 64)      139264      conv1d_21[0][0]                  
__________________________________________________________________________________________________
conv1d_23 (Conv1D)              (None, 128, 64)      69632       conv1d_21[0][0]                  
__________________________________________________________________________________________________
conv1d_24 (Conv1D)              (None, 128, 64)      34816       conv1d_21[0][0]                  
__________________________________________________________________________________________________
conv1d_25 (Conv1D)              (None, 128, 64)      16384       max_pooling1d_4[0][0]            
__________________________________________________________________________________________________
concatenate_4 (Concatenate)     (None, 128, 256)     0           conv1d_22[0][0]                  
                                                                 conv1d_23[0][0]                  
                                                                 conv1d_24[0][0]                  
                                                                 conv1d_25[0][0]                  
__________________________________________________________________________________________________
batch_normalization_7 (BatchNor (None, 128, 256)     1024        concatenate_4[0][0]              
__________________________________________________________________________________________________
activation_5 (Activation)       (None, 128, 256)     0           batch_normalization_7[0][0]      
__________________________________________________________________________________________________
global_average_pooling1d (Globa (None, 256)          0           activation_5[0][0]               
__________________________________________________________________________________________________
dense_1 (Dense)                 (None, 6)            1542        global_average_pooling1d[0][0]   
==================================================================================================
Total params: 1,327,754
Trainable params: 1,324,664
Non-trainable params: 3,090
__________________________________________________________________________________________________

+++Hyperparameters+++
Number of Epochs: 350
Batch Size: 64
Learning rate: 0.0005
…
