…
349  0.047351  1.000000  0.672525      0.826127  0.000100

Model: "model_1"
__________________________________________________________________________________________________
Layer (type)                    Output Shape         Param #     Connected to                     
==================================================================================================
input_2 (InputLayer)            [(None, 90, 77)]     0                                            
__________________________________________________________________________________________________
batch_normalization_16 (BatchNo (None, 90, 77)       308         input_2[0][0]                    
__________________________________________________________________________________________________
conv1d_33 (Conv1D)              (None, 90, 32)       2464        batch_normalization_16[0][0]     
__________________________________________________________________________________________________
max_pooling1d_7 (MaxPooling1D)  (None, 90, 77)       0           batch_normalization_16[0][0]     
__________________________________________________________________________________________________
conv1d_34 (Conv1D)              (None, 90, 64)       139264      conv1d_33[0][0]                  
__________________________________________________________________________________________________
conv1d_35 (Conv1D)              (None, 90, 64)       69632       conv1d_33[0][0]                  
__________________________________________________________________________________________________
conv1d_36 (Conv1D)              (None, 90, 64)       34816       conv1d_33[0][0]                  
__________________________________________________________________________________________________
conv1d_37 (Conv1D)              (None, 90, 64)       4928        max_pooling1d_7[0][0]            
__________________________________________________________________________________________________
concatenate_5 (Concatenate)     (None, 90, 256)      0           conv1d_34[0][0]                  
                                                                 conv1d_35[0][0]                  
                                                                 conv1d_36[0][0]                  
                                                                 conv1d_37[0][0]                  
__________________________________________________________________________________________________
batch_normalization_17 (BatchNo (None, 90, 256)      1024        concatenate_5[0][0]              
__________________________________________________________________________________________________
activation_11 (Activation)      (None, 90, 256)      0           batch_normalization_17[0][0]     
__________________________________________________________________________________________________
conv1d_38 (Conv1D)              (None, 90, 32)       8192        activation_11[0][0]              
__________________________________________________________________________________________________
max_pooling1d_8 (MaxPooling1D)  (None, 90, 256)      0           activation_11[0][0]              
__________________________________________________________________________________________________
conv1d_39 (Conv1D)              (None, 90, 64)       139264      conv1d_38[0][0]                  
__________________________________________________________________________________________________
conv1d_40 (Conv1D)              (None, 90, 64)       69632       conv1d_38[0][0]                  
__________________________________________________________________________________________________
conv1d_41 (Conv1D)              (None, 90, 64)       34816       conv1d_38[0][0]                  
__________________________________________________________________________________________________
conv1d_42 (Conv1D)              (None, 90, 64)       16384       max_pooling1d_8[0][0]            
__________________________________________________________________________________________________
concatenate_6 (Concatenate)     (None, 90, 256)      0           conv1d_39[0][0]                  
                                                                 conv1d_40[0][0]                  
                                                                 conv1d_41[0][0]                  
                                                                 conv1d_42[0][0]                  
__________________________________________________________________________________________________
batch_normalization_18 (BatchNo (None, 90, 256)      1024        concatenate_6[0][0]              
__________________________________________________________________________________________________
activation_12 (Activation)      (None, 90, 256)      0           batch_normalization_18[0][0]     
__________________________________________________________________________________________________
conv1d_43 (Conv1D)              (None, 90, 32)       8192        activation_12[0][0]              
__________________________________________________________________________________________________
max_pooling1d_9 (MaxPooling1D)  (None, 90, 256)      0           activation_12[0][0]              
__________________________________________________________________________________________________
conv1d_44 (Conv1D)              (None, 90, 64)       139264      conv1d_43[0][0]                  
__________________________________________________________________________________________________
conv1d_45 (Conv1D)              (None, 90, 64)       69632       conv1d_43[0][0]                  
__________________________________________________________________________________________________
conv1d_46 (Conv1D)              (None, 90, 64)       34816       conv1d_43[0][0]                  
__________________________________________________________________________________________________
conv1d_47 (Conv1D)              (None, 90, 64)       16384       max_pooling1d_9[0][0]            
__________________________________________________________________________________________________
concatenate_7 (Concatenate)     (None, 90, 256)      0           conv1d_44[0][0]                  
                                                                 conv1d_45[0][0]                  
                                                                 conv1d_46[0][0]                  
                                                                 conv1d_47[0][0]                  
__________________________________________________________________________________________________
conv1d_48 (Conv1D)              (None, 90, 256)      19712       batch_normalization_16[0][0]     
__________________________________________________________________________________________________
batch_normalization_19 (BatchNo (None, 90, 256)      1024        concatenate_7[0][0]              
__________________________________________________________________________________________________
batch_normalization_20 (BatchNo (None, 90, 256)      1024        conv1d_48[0][0]                  
__________________________________________________________________________________________________
activation_13 (Activation)      (None, 90, 256)      0           batch_normalization_19[0][0]     
__________________________________________________________________________________________________
add_1 (Add)                     (None, 90, 256)      0           batch_normalization_20[0][0]     
                                                                 activation_13[0][0]              
__________________________________________________________________________________________________
activation_14 (Activation)      (None, 90, 256)      0           add_1[0][0]                      
__________________________________________________________________________________________________
conv1d_49 (Conv1D)              (None, 90, 32)       8192        activation_14[0][0]              
__________________________________________________________________________________________________
max_pooling1d_10 (MaxPooling1D) (None, 90, 256)      0           activation_14[0][0]              
__________________________________________________________________________________________________
conv1d_50 (Conv1D)              (None, 90, 64)       139264      conv1d_49[0][0]                  
__________________________________________________________________________________________________
conv1d_51 (Conv1D)              (None, 90, 64)       69632       conv1d_49[0][0]                  
__________________________________________________________________________________________________
conv1d_52 (Conv1D)              (None, 90, 64)       34816       conv1d_49[0][0]                  
__________________________________________________________________________________________________
conv1d_53 (Conv1D)              (None, 90, 64)       16384       max_pooling1d_10[0][0]           
__________________________________________________________________________________________________
concatenate_8 (Concatenate)     (None, 90, 256)      0           conv1d_50[0][0]                  
                                                                 conv1d_51[0][0]                  
                                                                 conv1d_52[0][0]                  
                                                                 conv1d_53[0][0]                  
__________________________________________________________________________________________________
batch_normalization_21 (BatchNo (None, 90, 256)      1024        concatenate_8[0][0]              
__________________________________________________________________________________________________
activation_15 (Activation)      (None, 90, 256)      0           batch_normalization_21[0][0]     
__________________________________________________________________________________________________
conv1d_54 (Conv1D)              (None, 90, 32)       8192        activation_15[0][0]              
__________________________________________________________________________________________________
max_pooling1d_11 (MaxPooling1D) (None, 90, 256)      0           activation_15[0][0]              
__________________________________________________________________________________________________
conv1d_55 (Conv1D)              (None, 90, 64)       139264      conv1d_54[0][0]                  
__________________________________________________________________________________________________
conv1d_56 (Conv1D)              (None, 90, 64)       69632       conv1d_54[0][0]                  
__________________________________________________________________________________________________
conv1d_57 (Conv1D)              (None, 90, 64)       34816       conv1d_54[0][0]                  
__________________________________________________________________________________________________
conv1d_58 (Conv1D)              (None, 90, 64)       16384       max_pooling1d_11[0][0]           
__________________________________________________________________________________________________
concatenate_9 (Concatenate)     (None, 90, 256)      0           conv1d_55[0][0]                  
                                                                 conv1d_56[0][0]                  
                                                                 conv1d_57[0][0]                  
                                                                 conv1d_58[0][0]                  
__________________________________________________________________________________________________
batch_normalization_22 (BatchNo (None, 90, 256)      1024        concatenate_9[0][0]              
__________________________________________________________________________________________________
activation_16 (Activation)      (None, 90, 256)      0           batch_normalization_22[0][0]     
__________________________________________________________________________________________________
global_average_pooling1d_1 (Glo (None, 256)          0           activation_16[0][0]              
__________________________________________________________________________________________________
dense_10 (Dense)                (None, 17)           4369        global_average_pooling1d_1[0][0] 
==================================================================================================
Total params: 1,354,789
Trainable params: 1,351,563
Non-trainable params: 3,226
__________________________________________________________________________________________________

+++Hyperparameters+++
Number of Epochs: 350
Batch Size: 64
Learning rate: 0.0005
…
