…
349  0.057630  0.999343  0.608281      0.838086  0.000100

Model: "model"
__________________________________________________________________________________________________
Layer (type)                    Output Shape         Param #     Connected to                     
==================================================================================================
input_1 (InputLayer)            [(None, 90, 77)]     0                                            
__________________________________________________________________________________________________
batch_normalization (BatchNorma (None, 90, 77)       308         input_1[0][0]                    
__________________________________________________________________________________________________
conv1d (Conv1D)                 (None, 90, 32)       2464        batch_normalization[0][0]        
__________________________________________________________________________________________________
max_pooling1d (MaxPooling1D)    (None, 90, 77)       0           batch_normalization[0][0]        
__________________________________________________________________________________________________
conv1d_1 (Conv1D)               (None, 90, 64)       139264      conv1d[0][0]                     
__________________________________________________________________________________________________
conv1d_2 (Conv1D)               (None, 90, 64)       69632       conv1d[0][0]                     
__________________________________________________________________________________________________
conv1d_3 (Conv1D)               (None, 90, 64)       34816       conv1d[0][0]                     
__________________________________________________________________________________________________
conv1d_4 (Conv1D)               (None, 90, 64)       4928        max_pooling1d[0][0]              
__________________________________________________________________________________________________
concatenate (Concatenate)       (None, 90, 256)      0           conv1d_1[0][0]                   
                                                                 conv1d_2[0][0]                   
                                                                 conv1d_3[0][0]                   
                                                                 conv1d_4[0][0]                   
__________________________________________________________________________________________________
batch_normalization_1 (BatchNor (None, 90, 256)      1024        concatenate[0][0]                
__________________________________________________________________________________________________
activation (Activation)         (None, 90, 256)      0           batch_normalization_1[0][0]      
__________________________________________________________________________________________________
conv1d_5 (Conv1D)               (None, 90, 32)       8192        activation[0][0]                 
__________________________________________________________________________________________________
max_pooling1d_1 (MaxPooling1D)  (None, 90, 256)      0           activation[0][0]                 
__________________________________________________________________________________________________
conv1d_6 (Conv1D)               (None, 90, 64)       139264      conv1d_5[0][0]                   
__________________________________________________________________________________________________
conv1d_7 (Conv1D)               (None, 90, 64)       69632       conv1d_5[0][0]                   
__________________________________________________________________________________________________
conv1d_8 (Conv1D)               (None, 90, 64)       34816       conv1d_5[0][0]                   
__________________________________________________________________________________________________
conv1d_9 (Conv1D)               (None, 90, 64)       16384       max_pooling1d_1[0][0]            
__________________________________________________________________________________________________
concatenate_1 (Concatenate)     (None, 90, 256)      0           conv1d_6[0][0]                   
                                                                 conv1d_7[0][0]                   
                                                                 conv1d_8[0][0]                   
                                                                 conv1d_9[0][0]                   
__________________________________________________________________________________________________
batch_normalization_2 (BatchNor (None, 90, 256)      1024        concatenate_1[0][0]              
__________________________________________________________________________________________________
activation_1 (Activation)       (None, 90, 256)      0           batch_normalization_2[0][0]      
__________________________________________________________________________________________________
conv1d_10 (Conv1D)              (None, 90, 32)       8192        activation_1[0][0]               
__________________________________________________________________________________________________
max_pooling1d_2 (MaxPooling1D)  (None, 90, 256)      0           activation_1[0][0]               
__________________________________________________________________________________________________
conv1d_11 (Conv1D)              (None, 90, 64)       139264      conv1d_10[0][0]                  
__________________________________________________________________________________________________
conv1d_12 (Conv1D)              (None, 90, 64)       69632       conv1d_10[0][0]                  
__________________________________________________________________________________________________
conv1d_13 (Conv1D)              (None, 90, 64)       34816       conv1d_10[0][0]                  
__________________________________________________________________________________________________
conv1d_14 (Conv1D)              (None, 90, 64)       16384       max_pooling1d_2[0][0]            
__________________________________________________________________________________________________
concatenate_2 (Concatenate)     (None, 90, 256)      0           conv1d_11[0][0]                  
                                                                 conv1d_12[0][0]                  
                                                                 conv1d_13[0][0]                  
                                                                 conv1d_14[0][0]                  
__________________________________________________________________________________________________
conv1d_15 (Conv1D)              (None, 90, 256)      19712       batch_normalization[0][0]        
__________________________________________________________________________________________________
batch_normalization_3 (BatchNor (None, 90, 256)      1024        concatenate_2[0][0]              
__________________________________________________________________________________________________
batch_normalization_4 (BatchNor (None, 90, 256)      1024        conv1d_15[0][0]                  
__________________________________________________________________________________________________
activation_2 (Activation)       (None, 90, 256)      0           batch_normalization_3[0][0]      
__________________________________________________________________________________________________
add (Add)                       (None, 90, 256)      0           batch_normalization_4[0][0]      
                                                                 activation_2[0][0]               
__________________________________________________________________________________________________
activation_3 (Activation)       (None, 90, 256)      0           add[0][0]                        
__________________________________________________________________________________________________
conv1d_16 (Conv1D)              (None, 90, 32)       8192        activation_3[0][0]               
__________________________________________________________________________________________________
max_pooling1d_3 (MaxPooling1D)  (None, 90, 256)      0           activation_3[0][0]               
__________________________________________________________________________________________________
conv1d_17 (Conv1D)              (None, 90, 64)       139264      conv1d_16[0][0]                  
__________________________________________________________________________________________________
conv1d_18 (Conv1D)              (None, 90, 64)       69632       conv1d_16[0][0]                  
__________________________________________________________________________________________________
conv1d_19 (Conv1D)              (None, 90, 64)       34816       conv1d_16[0][0]                  
__________________________________________________________________________________________________
conv1d_20 (Conv1D)              (None, 90, 64)       16384       max_pooling1d_3[0][0]            
__________________________________________________________________________________________________
concatenate_3 (Concatenate)     (None, 90, 256)      0           conv1d_17[0][0]                  
                                                                 conv1d_18[0][0]                  
                                                                 conv1d_19[0][0]                  
                                                                 conv1d_20[0][0]                  
__________________________________________________________________________________________________
batch_normalization_5 (BatchNor (None, 90, 256)      1024        concatenate_3[0][0]              
__________________________________________________________________________________________________
activation_4 (Activation)       (None, 90, 256)      0           batch_normalization_5[0][0]      
__________________________________________________________________________________________________
conv1d_21 (Conv1D)              (None, 90, 32)       8192        activation_4[0][0]               
__________________________________________________________________________________________________
max_pooling1d_4 (MaxPooling1D)  (None, 90, 256)      0           activation_4[0][0]               
__________________________________________________________________________________________________
conv1d_22 (Conv1D)              (None, 90, 64)       139264      conv1d_21[0][0]                  
__________________________________________________________________________________________________
conv1d_23 (Conv1D)              (None, 90, 64)       69632       conv1d_21[0][0]                  
__________________________________________________________________________________________________
conv1d_24 (Conv1D)              (None, 90, 64)       34816       conv1d_21[0][0]                  
__________________________________________________________________________________________________
conv1d_25 (Conv1D)              (None, 90, 64)       16384       max_pooling1d_4[0][0]            
__________________________________________________________________________________________________
concatenate_4 (Concatenate)     (None, 90, 256)      0           conv1d_22[0][0]                  
                                                                 conv1d_23[0][0]                  
                                                                 conv1d_24[0][0]                  
                                                                 conv1d_25[0][0]                  
__________________________________________________________________________________________________
batch_normalization_6 (BatchNor (None, 90, 256)      1024        concatenate_4[0][0]              
__________________________________________________________________________________________________
activation_5 (Activation)       (None, 90, 256)      0           batch_normalization_6[0][0]      
__________________________________________________________________________________________________
global_average_pooling1d (Globa (None, 256)          0           activation_5[0][0]               
__________________________________________________________________________________________________
dense (Dense)                   (None, 17)           4369        global_average_pooling1d[0][0]   
==================================================================================================
Total params: 1,354,789
Trainable params: 1,351,563
Non-trainable params: 3,226
__________________________________________________________________________________________________

+++Hyperparameters+++
Number of Epochs: 350
Batch Size: 64
Learning rate: 0.0005
…
343  0.018894  1.000000  1.011042      0.747930  0.000105
344  0.018854  0.999672  0.999687      0.746090  0.000105
345  0.019798  0.999672  1.068586      0.727691  0.000105
346  0.019583  0.999343  0.965706      0.752530  0.000105
347  0.020511  0.999672  1.093028      0.720331  0.000105
348  0.019541  1.000000  1.033967      0.737810  0.000105
349  0.023953  0.999343  1.094304      0.718491  0.000105

Model: "sequential"
_________________________________________________________________
Layer (type)                 Output Shape              Param #   
=================================================================
batch_normalization_7 (Batch (None, 90, 77)            308       
_________________________________________________________________
conv1d_26 (Conv1D)           (None, 90, 32)            7424      
_________________________________________________________________
batch_normalization_8 (Batch (None, 90, 32)            128       
_________________________________________________________________
activation_6 (Activation)    (None, 90, 32)            0         
_________________________________________________________________
conv1d_27 (Conv1D)           (None, 90, 64)            6208      
_________________________________________________________________
batch_normalization_9 (Batch (None, 90, 64)            256       
_________________________________________________________________
activation_7 (Activation)    (None, 90, 64)            0         
_________________________________________________________________
conv1d_28 (Conv1D)           (None, 90, 32)            6176      
_________________________________________________________________
batch_normalization_10 (Batc (None, 90, 32)            128       
_________________________________________________________________
activation_8 (Activation)    (None, 90, 32)            0         
_________________________________________________________________
flatten (Flatten)            (None, 2880)              0         
_________________________________________________________________
dense_1 (Dense)              (None, 100)               288100    
_________________________________________________________________
activation_9 (Activation)    (None, 100)               0         
_________________________________________________________________
dense_2 (Dense)              (None, 17)                1717      
_________________________________________________________________
batch_normalization_11 (Batc (None, 17)                68        
_________________________________________________________________
activation_10 (Activation)   (None, 17)                0         
=================================================================
Total params: 310,513
Trainable params: 310,069
Non-trainable params: 444
_________________________________________________________________

+++Hyperparameters+++
Number of Epochs: 350
Batch Size: 64
Filters: [32, 64, 32]
Fc hidden nodes: 100
Learning rate: 0.0005
Regularization rate: 9.3e-05


Test Accuracy: 79.47855591773987
…
343  0.013636  1.000000  1.504828      0.759890  0.000205
344  0.013533  1.000000  1.497893      0.759890  0.000205
345  0.013615  1.000000  1.497608      0.757130  0.000205
346  0.013462  1.000000  1.495865      0.758970  0.000205
347  0.013477  1.000000  1.499111      0.760810  0.000205
348  0.013470  1.000000  1.503392      0.758970  0.000205
349  0.013476  1.000000  1.489364      0.758970  0.000205

Model: "sequential_1"
_________________________________________________________________
Layer (type)                 Output Shape              Param #   
=================================================================
reshape (Reshape)            (None, 3, 30, 77)         0         
_________________________________________________________________
batch_normalization_12 (Batc (None, 3, 30, 77)         308       
_________________________________________________________________
time_distributed (TimeDistri (None, 3, 30, 32)         7424      
_________________________________________________________________
time_distributed_1 (TimeDist (None, 3, 26, 64)         10304     
_________________________________________________________________
time_distributed_2 (TimeDist (None, 3, 13, 64)         0         
_________________________________________________________________
time_distributed_3 (TimeDist (None, 3, 9, 64)          20544     
_________________________________________________________________
time_distributed_4 (TimeDist (None, 3, 7, 32)          6176      
_________________________________________________________________
time_distributed_5 (TimeDist (None, 3, 3, 32)          0         
_________________________________________________________________
time_distributed_6 (TimeDist (None, 3, 96)             0         
_________________________________________________________________
lstm (LSTM)                  (None, 3, 512)            1247232   
_________________________________________________________________
lstm_1 (LSTM)                (None, 512)               2099200   
_________________________________________________________________
dropout (Dropout)            (None, 512)               0         
_________________________________________________________________
dense_3 (Dense)              (None, 100)               51300     
_________________________________________________________________
dense_4 (Dense)              (None, 17)                1717      
=================================================================
Total params: 3,444,205
Trainable params: 3,444,051
Non-trainable params: 154
_________________________________________________________________

+++Hyperparameters+++
Number of Epochs: 350
Batch Size: 64
N hidden: 512
N steps: 3
Length: 30
N signals: 77
Learning rate: 0.0005
Cnn depth: 3
Lstm depth: 2
Regularization rate: 9.3e-05
…
343  0.005344  1.000000  1.972537      0.712972  0.000100
344  0.006313  0.999343  1.948249      0.717571  0.000100
345  0.005552  0.999672  1.914373      0.717571  0.000100
346  0.005711  0.999672  1.918069      0.715731  0.000100
347  0.006590  0.999672  1.906213      0.722171  0.000100
348  0.005410  1.000000  1.919588      0.718491  0.000100
349  0.027530  0.993760  1.891646      0.719411  0.000100

Model: "sequential_2"
_________________________________________________________________
Layer (type)                 Output Shape              Param #   
=================================================================
batch_normalization_13 (Batc (None, 90, 77)            308       
_________________________________________________________________
lstm_2 (LSTM)                (None, 128)               105472    
_________________________________________________________________
dropout_1 (Dropout)          (None, 128)               0         
_________________________________________________________________
dense_5 (Dense)              (None, 100)               12900     
_________________________________________________________________
dense_6 (Dense)              (None, 17)                1717      
=================================================================
Total params: 120,397
Trainable params: 120,243
Non-trainable params: 154
_________________________________________________________________

+++Hyperparameters+++
Number of Epochs: 350
Batch Size: 64
N hidden: 128
Learning rate: 0.0005
Regularization rate: 9.3e-05


Test Accuracy: 76.70311331748962
Test Loss: 0.7396757006645203
…
343  0.020274  1.000000  1.375654      0.778289  0.000100
344  0.020440  0.999672  1.388692      0.779209  0.000100
345  0.020008  1.000000  1.389077      0.780129  0.000100
346  0.020025  1.000000  1.397152      0.779209  0.000100
347  0.020130  1.000000  1.375031      0.782889  0.000100
348  0.019910  1.000000  1.359957      0.785649  0.000100
349  0.019993  1.000000  1.357628      0.785649  0.000100

Model: "sequential_4"
_________________________________________________________________
Layer (type)                 Output Shape              Param #   
=================================================================
batch_normalization_15 (Batc (None, 90, 77)            308       
_________________________________________________________________
preprocess (Dense)           (None, 90, 100)           7800      
_________________________________________________________________
lstm_4 (LSTM)                (None, 90, 128)           117248    
_________________________________________________________________
dropout_2 (Dropout)          (None, 90, 128)           0         
_________________________________________________________________
lstm_5 (LSTM)                (None, 128)               131584    
_________________________________________________________________
dense_9 (Dense)              (None, 100)               12900     
_________________________________________________________________
output (Dense)               (None, 17)                1717      
=================================================================
Total params: 271,557
Trainable params: 271,403
Non-trainable params: 154
_________________________________________________________________

+++Hyperparameters+++
Number of Epochs: 350
Batch Size: 64
N hidden: 128
Learning rate: 0.0005
Regularization rate: 9.3e-05
Depth: 4


Test Accuracy: 83.26324820518494
Test Loss: 0.6920163631439209
…
