…
59  0.053230  0.991790  0.801773      0.823367  0.0005
60  0.044005  0.995731  0.919263      0.795768  0.0005
61  0.044782  0.994417  0.994311      0.778289  0.0005
62  0.058216  0.990476  0.932387      0.812328  0.0005
63  0.088347  0.978654  1.412100      0.748850  0.0005
64  0.098686  0.975041  0.887349      0.804968  0.0005
65  0.069794  0.985550  0.777738      0.819687  0.0005

Model: "sequential"
_________________________________________________________________
Layer (type)                 Output Shape              Param #   
=================================================================
batch_normalization (BatchNo (None, 90, 77)            308       
_________________________________________________________________
preprocess (Dense)           (None, 90, 100)           7800      
_________________________________________________________________
lstm (LSTM)                  (None, 90, 128)           117248    
_________________________________________________________________
dropout (Dropout)            (None, 90, 128)           0         
_________________________________________________________________
lstm_1 (LSTM)                (None, 128)               131584    
_________________________________________________________________
dense (Dense)                (None, 100)               12900     
_________________________________________________________________
output (Dense)               (None, 17)                1717      
=================================================================
Total params: 271,557
Trainable params: 271,403
Non-trainable params: 154
_________________________________________________________________

+++Hyperparameters+++
Number of Epochs: 350
Batch Size: 64
N hidden: 128
Learning rate: 0.0005
Regularization rate: 9.3e-05
Depth: 4


Test Accuracy: 80.82422018051147
Test Loss: 0.6404978632926941
…
349  0.052143  1.000000  0.582905      0.854646  0.000100

Model: "model"
__________________________________________________________________________________________________
Layer (type)                    Output Shape         Param #     Connected to                     
==================================================================================================
input_1 (InputLayer)            [(None, 90, 77)]     0                                            
__________________________________________________________________________________________________
batch_normalization_2 (BatchNor (None, 90, 77)       308         input_1[0][0]                    
__________________________________________________________________________________________________
conv1d (Conv1D)                 (None, 90, 32)       2464        batch_normalization_2[0][0]      
__________________________________________________________________________________________________
max_pooling1d (MaxPooling1D)    (None, 90, 77)       0           batch_normalization_2[0][0]      
__________________________________________________________________________________________________
conv1d_1 (Conv1D)               (None, 90, 64)       139264      conv1d[0][0]                     
__________________________________________________________________________________________________
conv1d_2 (Conv1D)               (None, 90, 64)       69632       conv1d[0][0]                     
__________________________________________________________________________________________________
conv1d_3 (Conv1D)               (None, 90, 64)       34816       conv1d[0][0]                     
__________________________________________________________________________________________________
conv1d_4 (Conv1D)               (None, 90, 64)       4928        max_pooling1d[0][0]              
__________________________________________________________________________________________________
concatenate (Concatenate)       (None, 90, 256)      0           conv1d_1[0][0]                   
                                                                 conv1d_2[0][0]                   
                                                                 conv1d_3[0][0]                   
                                                                 conv1d_4[0][0]                   
__________________________________________________________________________________________________
batch_normalization_3 (BatchNor (None, 90, 256)      1024        concatenate[0][0]                
__________________________________________________________________________________________________
activation (Activation)         (None, 90, 256)      0           batch_normalization_3[0][0]      
__________________________________________________________________________________________________
conv1d_5 (Conv1D)               (None, 90, 32)       8192        activation[0][0]                 
__________________________________________________________________________________________________
max_pooling1d_1 (MaxPooling1D)  (None, 90, 256)      0           activation[0][0]                 
__________________________________________________________________________________________________
conv1d_6 (Conv1D)               (None, 90, 64)       139264      conv1d_5[0][0]                   
__________________________________________________________________________________________________
conv1d_7 (Conv1D)               (None, 90, 64)       69632       conv1d_5[0][0]                   
__________________________________________________________________________________________________
conv1d_8 (Conv1D)               (None, 90, 64)       34816       conv1d_5[0][0]                   
__________________________________________________________________________________________________
conv1d_9 (Conv1D)               (None, 90, 64)       16384       max_pooling1d_1[0][0]            
__________________________________________________________________________________________________
concatenate_1 (Concatenate)     (None, 90, 256)      0           conv1d_6[0][0]                   
                                                                 conv1d_7[0][0]                   
                                                                 conv1d_8[0][0]                   
                                                                 conv1d_9[0][0]                   
__________________________________________________________________________________________________
batch_normalization_4 (BatchNor (None, 90, 256)      1024        concatenate_1[0][0]              
__________________________________________________________________________________________________
activation_1 (Activation)       (None, 90, 256)      0           batch_normalization_4[0][0]      
__________________________________________________________________________________________________
conv1d_10 (Conv1D)              (None, 90, 32)       8192        activation_1[0][0]               
__________________________________________________________________________________________________
max_pooling1d_2 (MaxPooling1D)  (None, 90, 256)      0           activation_1[0][0]               
__________________________________________________________________________________________________
conv1d_11 (Conv1D)              (None, 90, 64)       139264      conv1d_10[0][0]                  
__________________________________________________________________________________________________
conv1d_12 (Conv1D)              (None, 90, 64)       69632       conv1d_10[0][0]                  
__________________________________________________________________________________________________
conv1d_13 (Conv1D)              (None, 90, 64)       34816       conv1d_10[0][0]                  
__________________________________________________________________________________________________
conv1d_14 (Conv1D)              (None, 90, 64)       16384       max_pooling1d_2[0][0]            
__________________________________________________________________________________________________
concatenate_2 (Concatenate)     (None, 90, 256)      0           conv1d_11[0][0]                  
                                                                 conv1d_12[0][0]                  
                                                                 conv1d_13[0][0]                  
                                                                 conv1d_14[0][0]                  
__________________________________________________________________________________________________
conv1d_15 (Conv1D)              (None, 90, 256)      19712       batch_normalization_2[0][0]      
__________________________________________________________________________________________________
batch_normalization_5 (BatchNor (None, 90, 256)      1024        concatenate_2[0][0]              
__________________________________________________________________________________________________
batch_normalization_6 (BatchNor (None, 90, 256)      1024        conv1d_15[0][0]                  
__________________________________________________________________________________________________
activation_2 (Activation)       (None, 90, 256)      0           batch_normalization_5[0][0]      
__________________________________________________________________________________________________
add (Add)                       (None, 90, 256)      0           batch_normalization_6[0][0]      
                                                                 activation_2[0][0]               
__________________________________________________________________________________________________
activation_3 (Activation)       (None, 90, 256)      0           add[0][0]                        
__________________________________________________________________________________________________
conv1d_16 (Conv1D)              (None, 90, 32)       8192        activation_3[0][0]               
__________________________________________________________________________________________________
max_pooling1d_3 (MaxPooling1D)  (None, 90, 256)      0           activation_3[0][0]               
__________________________________________________________________________________________________
conv1d_17 (Conv1D)              (None, 90, 64)       139264      conv1d_16[0][0]                  
__________________________________________________________________________________________________
conv1d_18 (Conv1D)              (None, 90, 64)       69632       conv1d_16[0][0]                  
__________________________________________________________________________________________________
conv1d_19 (Conv1D)              (None, 90, 64)       34816       conv1d_16[0][0]                  
__________________________________________________________________________________________________
conv1d_20 (Conv1D)              (None, 90, 64)       16384       max_pooling1d_3[0][0]            
__________________________________________________________________________________________________
concatenate_3 (Concatenate)     (None, 90, 256)      0           conv1d_17[0][0]                  
                                                                 conv1d_18[0][0]                  
                                                                 conv1d_19[0][0]                  
                                                                 conv1d_20[0][0]                  
__________________________________________________________________________________________________
batch_normalization_7 (BatchNor (None, 90, 256)      1024        concatenate_3[0][0]              
__________________________________________________________________________________________________
activation_4 (Activation)       (None, 90, 256)      0           batch_normalization_7[0][0]      
__________________________________________________________________________________________________
conv1d_21 (Conv1D)              (None, 90, 32)       8192        activation_4[0][0]               
__________________________________________________________________________________________________
max_pooling1d_4 (MaxPooling1D)  (None, 90, 256)      0           activation_4[0][0]               
__________________________________________________________________________________________________
conv1d_22 (Conv1D)              (None, 90, 64)       139264      conv1d_21[0][0]                  
__________________________________________________________________________________________________
conv1d_23 (Conv1D)              (None, 90, 64)       69632       conv1d_21[0][0]                  
__________________________________________________________________________________________________
conv1d_24 (Conv1D)              (None, 90, 64)       34816       conv1d_21[0][0]                  
__________________________________________________________________________________________________
conv1d_25 (Conv1D)              (None, 90, 64)       16384       max_pooling1d_4[0][0]            
__________________________________________________________________________________________________
concatenate_4 (Concatenate)     (None, 90, 256)      0           conv1d_22[0][0]                  
                                                                 conv1d_23[0][0]                  
                                                                 conv1d_24[0][0]                  
                                                                 conv1d_25[0][0]                  
__________________________________________________________________________________________________
batch_normalization_8 (BatchNor (None, 90, 256)      1024        concatenate_4[0][0]              
__________________________________________________________________________________________________
activation_5 (Activation)       (None, 90, 256)      0           batch_normalization_8[0][0]      
__________________________________________________________________________________________________
global_average_pooling1d (Globa (None, 256)          0           activation_5[0][0]               
__________________________________________________________________________________________________
dense_3 (Dense)                 (None, 17)           4369        global_average_pooling1d[0][0]   
==================================================================================================
Total params: 1,354,789
Trainable params: 1,351,563
Non-trainable params: 3,226
__________________________________________________________________________________________________

+++Hyperparameters+++
Number of Epochs: 350
Batch Size: 64
Learning rate: 0.0005
…
